…
I0803 17:38:33.645193  6966 net.cpp:313] The NetState phase (0) differed from the phase (1) specified by a rule in layer facial_point
I0803 17:38:33.645551  6966 net.cpp:49] Initializing net from parameters: 
name: "facial_point_net"
state {
  phase: TRAIN
}
layer {
  name: "facial_point"
  type: "NewFacialPointData"
  top: "data"
  top: "label"
  include {
    phase: TRAIN
  }
  new_facial_point_data_param {
    source: "train_aug_list.txt"
    batch_size: 64
    shuffle: true
    new_height: 224
    new_width: 224
    is_color: true
    point_num: 68
    ext_scale: 1.2
    xy_mean: 0.03
    xy_std: 0.03
    wh_mean: 1
    wh_std: 0.03
  }
}
layer {
  name: "conv1"
  type: "Convolution"
  bottom: "data"
  top: "conv1"
  param {
    lr_mult: 1
    decay_mult: 1
  }
  param {
    lr_mult: 2
    decay_mult: 0
  }
  convolution_param {
    num_output: 96
    kernel_size: 7
    stride: 2
    weight_filler {
      type: "xavier"
    }
    bias_filler {
      type: "constant"
      value: 0.2
    }
  }
}
layer {
  name: "relu1"
  type: "ReLU"
  bottom: "conv1"
  top: "conv1"
}
layer {
  name: "norm1"
  type: "LRN"
  bottom: "conv1"
  top: "norm1"
  lrn_param {
    local_size: 5
    alpha: 0.0005
    beta: 0.75
    k: 2
  }
}
layer {
  name: "pool1"
  type: "Pooling"
  bottom: "norm1"
  top: "pool1"
  pooling_param {
    pool: MAX
    kernel_size: 3
    stride: 3
  }
}
layer {
  name: "conv2"
  type: "Convolution"
  bottom: "pool1"
  top: "conv2"
  param {
    lr_mult: 1
    decay_mult: 1
  }
  param {
    lr_mult: 2
    decay_mult: 0
  }
  convolution_param {
    num_output: 256
    kernel_size: 5
    weight_filler {
      type: "xavier"
    }
    bias_filler {
      type: "constant"
      value: 0.2
    }
  }
}
layer {
  name: "relu2"
  type: "ReLU"
  bottom: "conv2"
  top: "conv2"
}
layer {
  name: "pool2"
  type: "Pooling"
  bottom: "conv2"
  top: "pool2"
  pooling_param {
    pool: MAX
    kernel_size: 2
    stride: 2
  }
}
layer {
  name: "conv3"
  type: "Convolution"
  bottom: "pool2"
  top: "conv3"
  param {
    lr_mult: 1
    decay_mult: 1
  }
  param {
    lr_mult: 2
    decay_mult: 0
  }
  convolution_param {
    num_output: 512
    pad: 1
    kernel_size: 3
    weight_filler {
      type: "xavier"
    }
    bias_filler {
      type: "constant"
      value: 0.2
    }
  }
}
layer {
  name: "relu3"
  type: "ReLU"
  bottom: "conv3"
  top: "conv3"
}
layer {
  name: "conv4"
  type: "Convolution"
  bottom: "conv3"
  top: "conv4"
  param {
    lr_mult: 1
    decay_mult: 1
  }
  param {
    lr_mult: 2
    decay_mult: 0
  }
  convolution_param {
    num_output: 512
    pad: 1
    kernel_size: 3
    weight_filler {
      type: "xavier"
    }
    bias_filler {
      type: "constant"
      value: 0.2
    }
  }
}
layer {
  name: "relu4"
  type: "ReLU"
  bottom: "conv4"
  top: "conv4"
}
layer {
  name: "conv5"
  type: "Convolution"
  bottom: "conv4"
  top: "conv5"
  param {
    lr_mult: 1
    decay_mult: 1
  }
  param {
    lr_mult: 2
    decay_mult: 0
  }
  convolution_param {
    num_output: 512
    pad: 1
    kernel_size: 3
    weight_filler {
      type: "xavier"
    }
    bias_filler {
      type: "constant"
      value: 0.2
    }
  }
}
layer {
  name: "relu5"
  type: "ReLU"
  bottom: "conv5"
  top: "conv5"
}
layer {
  name: "pool3"
  type: "Pooling"
  bottom: "conv5"
  top: "pool3"
  pooling_param {
    pool: MAX
    kernel_size: 3
    stride: 3
  }
}
layer {
  name: "fc6"
  type: "InnerProduct"
  bottom: "pool3"
  top: "fc6"
  param {
    lr_mult: 1
    decay_mult: 1
  }
  param {
    lr_mult: 2
    decay_mult: 0
  }
  inner_product_param {
    num_output: 4096
    weight_filler {
      type: "xavier"
    }
    bias_filler {
      type: "constant"
      value: 0
    }
  }
}
layer {
  name: "relu6"
  type: "ReLU"
  bottom: "fc6"
  top: "fc6"
}
layer {
  name: "drop6"
  type: "Dropout"
  bottom: "fc6"
  top: "fc6"
  dropout_param {
    dropout_ratio: 0.5
  }
}
layer {
  name: "fc7"
  type: "InnerProduct"
  bottom: "fc6"
  top: "fc7"
  param {
    lr_mult: 1
    decay_mult: 1
  }
  param {
    lr_mult: 2
    decay_mult: 0
  }
  inner_product_param {
    num_output: 4096
    weight_filler {
      type: "xavier"
    }
    bias_filler {
      type: "constant"
      value: 0
    }
  }
}
layer {
  name: "relu7"
  type: "ReLU"
  bottom: "fc7"
  top: "fc7"
}
layer {
  name: "drop7"
  type: "Dropout"
  bottom: "fc7"
  top: "fc7"
  dropout_param {
    dropout_ratio: 0.5
  }
}
layer {
  name: "68point"
  type: "InnerProduct"
  bottom: "fc7"
  top: "68point"
  param {
    lr_mult: 1
    decay_mult: 1
  }
  param {
    lr_mult: 2
    decay_mult: 0
  }
  inner_product_param {
    num_output: 136
    weight_filler {
      type: "xavier"
    }
    bias_filler {
      type: "constant"
      value: 0
    }
  }
}
layer {
  name: "loss"
  type: "EuclideanLoss"
  bottom: "68point"
  bottom: "label"
  top: "loss"
}
layer {
  name: "loc_reg_"
  type: "InnerProduct"
  bottom: "68point"
  top: "theta"
  inner_product_param {
    num_output: 4
    weight_filler {
      type: "constant"
      value: 0
    }
    bias_filler {
      type: "file"
      file: "bias_crop_init.txt"
    }
  }
}
layer {
  name: "theta_loss"
  type: "LocLoss"
  bottom: "theta"
  top: "theta_loss"
  loss_weight: 1
  loc_loss_param {
    threshold: 1
  }
}
layer {
  name: "st_pts"
  type: "PointTransformer"
  bottom: "label"
  bottom: "theta"
  top: "local/label"
  propagate_down: false
  propagate_down: false
  pt_param {
    in_width: 224
    in_height: 224
    out_width: 224
    out_height: 224
    transform_type: CROP
  }
}
layer {
  name: "st_layer"
  type: "SpatialTransformer"
  bottom: "data"
  bottom: "theta"
  top: "local/data"
  st_param {
    output_H: 224
    output_W: 224
    to_compute_dU: false
    theta_1_2: 0
    theta_2_1: 0
  }
}
layer {
  name: "local_conv1"
  type: "Convolution"
  bottom: "local/data"
  top: "local/conv1"
  param {
    lr_mult: 1
    decay_mult: 1
  }
  param {
    lr_mult: 2
    decay_mult: 0
  }
  convolution_param {
    num_output: 96
    kernel_size: 7
    stride: 2
    weight_filler {
      type: "xavier"
    }
    bias_filler {
      type: "constant"
      value: 0.2
    }
  }
}
layer {
  name: "local_relu1"
  type: "ReLU"
  bottom: "local/conv1"
  top: "local/conv1"
}
layer {
  name: "local_norm1"
  type: "LRN"
  bottom: "local/conv1"
  top: "local/norm1"
  lrn_param {
    local_size: 5
    alpha: 0.0005
    beta: 0.75
    k: 2
  }
}
layer {
  name: "local_pool1"
  type: "Pooling"
  bottom: "local/norm1"
  top: "local/pool1"
  pooling_param {
    pool: MAX
    kernel_size: 3
    stride: 3
  }
}
layer {
  name: "local_conv2"
  type: "Convolution"
  bottom: "local/pool1"
  top: "local/conv2"
  param {
    lr_mult: 1
    decay_mult: 1
  }
  param {
    lr_mult: 2
    decay_mult: 0
  }
  convolution_param {
    num_output: 256
    kernel_size: 5
    weight_filler {
      type: "xavier"
    }
    bias_filler {
      type: "constant"
      value: 0.2
    }
  }
}
layer {
  name: "local_relu2"
  type: "ReLU"
  bottom: "local/conv2"
  top: "local/conv2"
}
layer {
  name: "local_pool2"
  type: "Pooling"
  bottom: "local/conv2"
  top: "local/pool2"
  pooling_param {
    pool: MAX
    kernel_size: 2
    stride: 2
  }
}
layer {
  name: "local_conv3"
  type: "Convolution"
  bottom: "local/pool2"
  top: "local/conv3"
  param {
    lr_mult: 1
    decay_mult: 1
  }
  param {
    lr_mult: 2
    decay_mult: 0
  }
  convolution_param {
    num_output: 512
    pad: 1
    kernel_size: 3
    weight_filler {
      type: "xavier"
    }
    bias_filler {
      type: "constant"
      value: 0.2
    }
  }
}
layer {
  name: "local_relu3"
  type: "ReLU"
  bottom: "local/conv3"
  top: "local/conv3"
}
layer {
  name: "local_conv4"
  type: "Convolution"
  bottom: "local/conv3"
  top: "local/conv4"
  param {
    lr_mult: 1
    decay_mult: 1
  }
  param {
    lr_mult: 2
    decay_mult: 0
  }
  convolution_param {
    num_output: 512
    pad: 1
    kernel_size: 3
    weight_filler {
      type: "xavier"
    }
    bias_filler {
      type: "constant"
      value: 0.2
    }
  }
}
layer {
  name: "local_relu4"
  type: "ReLU"
  bottom: "local/conv4"
  top: "local/conv4"
}
layer {
  name: "local_conv5"
  type: "Convolution"
  bottom: "local/conv4"
  top: "local/conv5"
  param {
    lr_mult: 1
    decay_mult: 1
  }
  param {
    lr_mult: 2
    decay_mult: 0
  }
  convolution_param {
    num_output: 512
    pad: 1
    kernel_size: 3
    weight_filler {
      type: "xavier"
    }
    bias_filler {
      type: "constant"
      value: 0.2
    }
  }
}
layer {
  name: "local_relu5"
  type: "ReLU"
  bottom: "local/conv5"
  top: "local/conv5"
}
layer {
  name: "local_pool3"
  type: "Pooling"
  bottom: "local/conv5"
  top: "local/pool3"
  pooling_param {
    pool: MAX
    kernel_size: 3
    stride: 3
  }
}
layer {
  name: "local_fc6"
  type: "InnerProduct"
  bottom: "local/pool3"
  top: "local/fc6"
  param {
    lr_mult: 1
    decay_mult: 1
  }
  param {
    lr_mult: 2
    decay_mult: 0
  }
  inner_product_param {
    num_output: 4096
    weight_filler {
      type: "xavier"
    }
    bias_filler {
      type: "constant"
      value: 0
    }
  }
}
layer {
  name: "local_relu6"
  type: "ReLU"
  bottom: "local/fc6"
  top: "local/fc6"
}
layer {
  name: "local_drop6"
  type: "Dropout"
  bottom: "local/fc6"
  top: "local/fc6"
  dropout_param {
    dropout_ratio: 0.5
  }
}
layer {
  name: "local_fc7"
  type: "InnerProduct"
  bottom: "local/fc6"
  top: "local/fc7"
  param {
    lr_mult: 1
    decay_mult: 1
  }
  param {
    lr_mult: 2
    decay_mult: 0
  }
  inner_product_param {
    num_output: 4096
    weight_filler {
      type: "xavier"
    }
    bias_filler {
      type: "constant"
      value: 0
    }
  }
}
layer {
  name: "local_relu7"
  type: "ReLU"
  bottom: "local/fc7"
  top: "local/fc7"
}
layer {
  name: "local_drop7"
  type: "Dropout"
  bottom: "local/fc7"
  top: "local/fc7"
  dropout_param {
    dropout_ratio: 0.5
  }
}
layer {
  name: "local_68point"
  type: "InnerProduct"
  bottom: "local/fc7"
  top: "local/68point"
  param {
    lr_mult: 1
    decay_mult: 1
  }
  param {
    lr_mult: 2
    decay_mult: 0
  }
  inner_product_param {
    num_output: 136
    weight_filler {
      type: "xavier"
    }
    bias_filler {
      type: "constant"
      value: 0
    }
  }
}
layer {
  name: "local_loss"
  type: "EuclideanLoss"
  bottom: "local/68point"
  bottom: "local/label"
  top: "local/loss"
}
I0803 17:38:33.647696  6966 layer_factory.hpp:77] Creating layer facial_point
I0803 17:38:33.647747  6966 net.cpp:91] Creating Layer facial_point
I0803 17:38:33.647758  6966 net.cpp:399] facial_point -> data
I0803 17:38:33.647786  6966 net.cpp:399] facial_point -> label
I0803 17:38:33.647804  6966 new_facial_point_data_layer.cpp:187] Opening file train_aug_list.txt
I0803 17:38:33.653412  6966 new_facial_point_data_layer.cpp:197] Shuffling data
I0803 17:38:33.654736  6966 new_facial_point_data_layer.cpp:203] A total of 12592 images.
I0803 17:38:33.676710  6966 new_facial_point_data_layer.cpp:263] output data size: 64,3,224,224
I0803 17:38:33.745247  6966 net.cpp:141] Setting up facial_point
I0803 17:38:33.745301  6966 net.cpp:148] Top shape: 64 3 224 224 (9633792)
I0803 17:38:33.745314  6966 net.cpp:148] Top shape: 64 136 (8704)
I0803 17:38:33.745323  6966 net.cpp:156] Memory required for data: 38569984
I0803 17:38:33.745337  6966 layer_factory.hpp:77] Creating layer data_facial_point_0_split
I0803 17:38:33.745362  6966 net.cpp:91] Creating Layer data_facial_point_0_split
I0803 17:38:33.745373  6966 net.cpp:425] data_facial_point_0_split <- data
I0803 17:38:33.745390  6966 net.cpp:399] data_facial_point_0_split -> data_facial_point_0_split_0
I0803 17:38:33.745409  6966 net.cpp:399] data_facial_point_0_split -> data_facial_point_0_split_1
I0803 17:38:33.745507  6966 net.cpp:141] Setting up data_facial_point_0_split
I0803 17:38:33.745524  6966 net.cpp:148] Top shape: 64 3 224 224 (9633792)
I0803 17:38:33.745533  6966 net.cpp:148] Top shape: 64 3 224 224 (9633792)
I0803 17:38:33.745542  6966 net.cpp:156] Memory required for data: 115640320
I0803 17:38:33.745549  6966 layer_factory.hpp:77] Creating layer label_facial_point_1_split
I0803 17:38:33.745560  6966 net.cpp:91] Creating Layer label_facial_point_1_split
I0803 17:38:33.745570  6966 net.cpp:425] label_facial_point_1_split <- label
I0803 17:38:33.745580  6966 net.cpp:399] label_facial_point_1_split -> label_facial_point_1_split_0
I0803 17:38:33.745591  6966 net.cpp:399] label_facial_point_1_split -> label_facial_point_1_split_1
I0803 17:38:33.745636  6966 net.cpp:141] Setting up label_facial_point_1_split
I0803 17:38:33.745648  6966 net.cpp:148] Top shape: 64 136 (8704)
I0803 17:38:33.745657  6966 net.cpp:148] Top shape: 64 136 (8704)
I0803 17:38:33.745664  6966 net.cpp:156] Memory required for data: 115709952
I0803 17:38:33.745672  6966 layer_factory.hpp:77] Creating layer conv1
I0803 17:38:33.745693  6966 net.cpp:91] Creating Layer conv1
I0803 17:38:33.745702  6966 net.cpp:425] conv1 <- data_facial_point_0_split_0
I0803 17:38:33.745713  6966 net.cpp:399] conv1 -> conv1
I0803 17:38:33.746083  6966 net.cpp:141] Setting up conv1
I0803 17:38:33.746100  6966 net.cpp:148] Top shape: 64 96 109 109 (72996864)
I0803 17:38:33.746109  6966 net.cpp:156] Memory required for data: 407697408
I0803 17:38:33.746127  6966 layer_factory.hpp:77] Creating layer relu1
I0803 17:38:33.746141  6966 net.cpp:91] Creating Layer relu1
I0803 17:38:33.746150  6966 net.cpp:425] relu1 <- conv1
I0803 17:38:33.746160  6966 net.cpp:386] relu1 -> conv1 (in-place)
I0803 17:38:33.746176  6966 net.cpp:141] Setting up relu1
I0803 17:38:33.746184  6966 net.cpp:148] Top shape: 64 96 109 109 (72996864)
I0803 17:38:33.746191  6966 net.cpp:156] Memory required for data: 699684864
I0803 17:38:33.746198  6966 layer_factory.hpp:77] Creating layer norm1
I0803 17:38:33.746212  6966 net.cpp:91] Creating Layer norm1
I0803 17:38:33.746220  6966 net.cpp:425] norm1 <- conv1
I0803 17:38:33.746230  6966 net.cpp:399] norm1 -> norm1
I0803 17:38:33.746275  6966 net.cpp:141] Setting up norm1
I0803 17:38:33.746300  6966 net.cpp:148] Top shape: 64 96 109 109 (72996864)
I0803 17:38:33.746307  6966 net.cpp:156] Memory required for data: 991672320
I0803 17:38:33.746317  6966 layer_factory.hpp:77] Creating layer pool1
I0803 17:38:33.746328  6966 net.cpp:91] Creating Layer pool1
I0803 17:38:33.746336  6966 net.cpp:425] pool1 <- norm1
I0803 17:38:33.746346  6966 net.cpp:399] pool1 -> pool1
I0803 17:38:33.746395  6966 net.cpp:141] Setting up pool1
I0803 17:38:33.746413  6966 net.cpp:148] Top shape: 64 96 37 37 (8411136)
I0803 17:38:33.746420  6966 net.cpp:156] Memory required for data: 1025316864
I0803 17:38:33.746430  6966 layer_factory.hpp:77] Creating layer conv2
I0803 17:38:33.746443  6966 net.cpp:91] Creating Layer conv2
I0803 17:38:33.746453  6966 net.cpp:425] conv2 <- pool1
I0803 17:38:33.746462  6966 net.cpp:399] conv2 -> conv2
I0803 17:38:33.753193  6966 net.cpp:141] Setting up conv2
I0803 17:38:33.753227  6966 net.cpp:148] Top shape: 64 256 33 33 (17842176)
I0803 17:38:33.753237  6966 net.cpp:156] Memory required for data: 1096685568
I0803 17:38:33.753252  6966 layer_factory.hpp:77] Creating layer relu2
I0803 17:38:33.753265  6966 net.cpp:91] Creating Layer relu2
I0803 17:38:33.753273  6966 net.cpp:425] relu2 <- conv2
I0803 17:38:33.753283  6966 net.cpp:386] relu2 -> conv2 (in-place)
I0803 17:38:33.753295  6966 net.cpp:141] Setting up relu2
I0803 17:38:33.753304  6966 net.cpp:148] Top shape: 64 256 33 33 (17842176)
I0803 17:38:33.753310  6966 net.cpp:156] Memory required for data: 1168054272
I0803 17:38:33.753317  6966 layer_factory.hpp:77] Creating layer pool2
I0803 17:38:33.753327  6966 net.cpp:91] Creating Layer pool2
I0803 17:38:33.753335  6966 net.cpp:425] pool2 <- conv2
I0803 17:38:33.753345  6966 net.cpp:399] pool2 -> pool2
I0803 17:38:33.753406  6966 net.cpp:141] Setting up pool2
I0803 17:38:33.753417  6966 net.cpp:148] Top shape: 64 256 17 17 (4734976)
I0803 17:38:33.753424  6966 net.cpp:156] Memory required for data: 1186994176
I0803 17:38:33.753432  6966 layer_factory.hpp:77] Creating layer conv3
I0803 17:38:33.753446  6966 net.cpp:91] Creating Layer conv3
I0803 17:38:33.753454  6966 net.cpp:425] conv3 <- pool2
I0803 17:38:33.753464  6966 net.cpp:399] conv3 -> conv3
I0803 17:38:33.765352  6966 net.cpp:141] Setting up conv3
I0803 17:38:33.765380  6966 net.cpp:148] Top shape: 64 512 17 17 (9469952)
I0803 17:38:33.765389  6966 net.cpp:156] Memory required for data: 1224873984
I0803 17:38:33.765403  6966 layer_factory.hpp:77] Creating layer relu3
I0803 17:38:33.765415  6966 net.cpp:91] Creating Layer relu3
I0803 17:38:33.765425  6966 net.cpp:425] relu3 <- conv3
I0803 17:38:33.765435  6966 net.cpp:386] relu3 -> conv3 (in-place)
I0803 17:38:33.765449  6966 net.cpp:141] Setting up relu3
I0803 17:38:33.765458  6966 net.cpp:148] Top shape: 64 512 17 17 (9469952)
I0803 17:38:33.765467  6966 net.cpp:156] Memory required for data: 1262753792
I0803 17:38:33.765475  6966 layer_factory.hpp:77] Creating layer conv4
I0803 17:38:33.765489  6966 net.cpp:91] Creating Layer conv4
I0803 17:38:33.765499  6966 net.cpp:425] conv4 <- conv3
I0803 17:38:33.765509  6966 net.cpp:399] conv4 -> conv4
I0803 17:38:33.788254  6966 net.cpp:141] Setting up conv4
I0803 17:38:33.788296  6966 net.cpp:148] Top shape: 64 512 17 17 (9469952)
I0803 17:38:33.788305  6966 net.cpp:156] Memory required for data: 1300633600
I0803 17:38:33.788321  6966 layer_factory.hpp:77] Creating layer relu4
I0803 17:38:33.788336  6966 net.cpp:91] Creating Layer relu4
I0803 17:38:33.788346  6966 net.cpp:425] relu4 <- conv4
I0803 17:38:33.788357  6966 net.cpp:386] relu4 -> conv4 (in-place)
I0803 17:38:33.788372  6966 net.cpp:141] Setting up relu4
I0803 17:38:33.788380  6966 net.cpp:148] Top shape: 64 512 17 17 (9469952)
I0803 17:38:33.788388  6966 net.cpp:156] Memory required for data: 1338513408
I0803 17:38:33.788396  6966 layer_factory.hpp:77] Creating layer conv5
I0803 17:38:33.788411  6966 net.cpp:91] Creating Layer conv5
I0803 17:38:33.788420  6966 net.cpp:425] conv5 <- conv4
I0803 17:38:33.788431  6966 net.cpp:399] conv5 -> conv5
I0803 17:38:33.811374  6966 net.cpp:141] Setting up conv5
I0803 17:38:33.811420  6966 net.cpp:148] Top shape: 64 512 17 17 (9469952)
I0803 17:38:33.811429  6966 net.cpp:156] Memory required for data: 1376393216
I0803 17:38:33.811449  6966 layer_factory.hpp:77] Creating layer relu5
I0803 17:38:33.811465  6966 net.cpp:91] Creating Layer relu5
I0803 17:38:33.811475  6966 net.cpp:425] relu5 <- conv5
I0803 17:38:33.811487  6966 net.cpp:386] relu5 -> conv5 (in-place)
I0803 17:38:33.811504  6966 net.cpp:141] Setting up relu5
I0803 17:38:33.811514  6966 net.cpp:148] Top shape: 64 512 17 17 (9469952)
I0803 17:38:33.811522  6966 net.cpp:156] Memory required for data: 1414273024
I0803 17:38:33.811530  6966 layer_factory.hpp:77] Creating layer pool3
I0803 17:38:33.811544  6966 net.cpp:91] Creating Layer pool3
I0803 17:38:33.811553  6966 net.cpp:425] pool3 <- conv5
I0803 17:38:33.811563  6966 net.cpp:399] pool3 -> pool3
I0803 17:38:33.811605  6966 net.cpp:141] Setting up pool3
I0803 17:38:33.811624  6966 net.cpp:148] Top shape: 64 512 6 6 (1179648)
I0803 17:38:33.811631  6966 net.cpp:156] Memory required for data: 1418991616
I0803 17:38:33.811640  6966 layer_factory.hpp:77] Creating layer fc6
I0803 17:38:33.811652  6966 net.cpp:91] Creating Layer fc6
I0803 17:38:33.811661  6966 net.cpp:425] fc6 <- pool3
I0803 17:38:33.811671  6966 net.cpp:399] fc6 -> fc6
I0803 17:38:34.492527  6966 net.cpp:141] Setting up fc6
I0803 17:38:34.492638  6966 net.cpp:148] Top shape: 64 4096 (262144)
I0803 17:38:34.492647  6966 net.cpp:156] Memory required for data: 1420040192
I0803 17:38:34.492684  6966 layer_factory.hpp:77] Creating layer relu6
I0803 17:38:34.492733  6966 net.cpp:91] Creating Layer relu6
I0803 17:38:34.492756  6966 net.cpp:425] relu6 <- fc6
I0803 17:38:34.492769  6966 net.cpp:386] relu6 -> fc6 (in-place)
I0803 17:38:34.492810  6966 net.cpp:141] Setting up relu6
I0803 17:38:34.492820  6966 net.cpp:148] Top shape: 64 4096 (262144)
I0803 17:38:34.492826  6966 net.cpp:156] Memory required for data: 1421088768
I0803 17:38:34.492833  6966 layer_factory.hpp:77] Creating layer drop6
I0803 17:38:34.492853  6966 net.cpp:91] Creating Layer drop6
I0803 17:38:34.492866  6966 net.cpp:425] drop6 <- fc6
I0803 17:38:34.492874  6966 net.cpp:386] drop6 -> fc6 (in-place)
I0803 17:38:34.492933  6966 net.cpp:141] Setting up drop6
I0803 17:38:34.492945  6966 net.cpp:148] Top shape: 64 4096 (262144)
I0803 17:38:34.492952  6966 net.cpp:156] Memory required for data: 1422137344
I0803 17:38:34.492959  6966 layer_factory.hpp:77] Creating layer fc7
I0803 17:38:34.492976  6966 net.cpp:91] Creating Layer fc7
I0803 17:38:34.492985  6966 net.cpp:425] fc7 <- fc6
I0803 17:38:34.492995  6966 net.cpp:399] fc7 -> fc7
I0803 17:38:34.625560  6966 net.cpp:141] Setting up fc7
I0803 17:38:34.625602  6966 net.cpp:148] Top shape: 64 4096 (262144)
I0803 17:38:34.625609  6966 net.cpp:156] Memory required for data: 1423185920
I0803 17:38:34.625622  6966 layer_factory.hpp:77] Creating layer relu7
I0803 17:38:34.625645  6966 net.cpp:91] Creating Layer relu7
I0803 17:38:34.625654  6966 net.cpp:425] relu7 <- fc7
I0803 17:38:34.625663  6966 net.cpp:386] relu7 -> fc7 (in-place)
I0803 17:38:34.625676  6966 net.cpp:141] Setting up relu7
I0803 17:38:34.625685  6966 net.cpp:148] Top shape: 64 4096 (262144)
I0803 17:38:34.625691  6966 net.cpp:156] Memory required for data: 1424234496
I0803 17:38:34.625697  6966 layer_factory.hpp:77] Creating layer drop7
I0803 17:38:34.625710  6966 net.cpp:91] Creating Layer drop7
I0803 17:38:34.625716  6966 net.cpp:425] drop7 <- fc7
I0803 17:38:34.625725  6966 net.cpp:386] drop7 -> fc7 (in-place)
I0803 17:38:34.625748  6966 net.cpp:141] Setting up drop7
I0803 17:38:34.625767  6966 net.cpp:148] Top shape: 64 4096 (262144)
I0803 17:38:34.625773  6966 net.cpp:156] Memory required for data: 1425283072
I0803 17:38:34.625780  6966 layer_factory.hpp:77] Creating layer 68point
I0803 17:38:34.625792  6966 net.cpp:91] Creating Layer 68point
I0803 17:38:34.625798  6966 net.cpp:425] 68point <- fc7
I0803 17:38:34.625808  6966 net.cpp:399] 68point -> 68point
I0803 17:38:34.651340  6966 net.cpp:141] Setting up 68point
I0803 17:38:34.651365  6966 net.cpp:148] Top shape: 64 136 (8704)
I0803 17:38:34.651372  6966 net.cpp:156] Memory required for data: 1425317888
I0803 17:38:34.651383  6966 layer_factory.hpp:77] Creating layer 68point_68point_0_split
I0803 17:38:34.651394  6966 net.cpp:91] Creating Layer 68point_68point_0_split
I0803 17:38:34.651401  6966 net.cpp:425] 68point_68point_0_split <- 68point
I0803 17:38:34.651409  6966 net.cpp:399] 68point_68point_0_split -> 68point_68point_0_split_0
I0803 17:38:34.651420  6966 net.cpp:399] 68point_68point_0_split -> 68point_68point_0_split_1
I0803 17:38:34.651453  6966 net.cpp:141] Setting up 68point_68point_0_split
I0803 17:38:34.651463  6966 net.cpp:148] Top shape: 64 136 (8704)
I0803 17:38:34.651468  6966 net.cpp:148] Top shape: 64 136 (8704)
I0803 17:38:34.651473  6966 net.cpp:156] Memory required for data: 1425387520
I0803 17:38:34.651479  6966 layer_factory.hpp:77] Creating layer loss
I0803 17:38:34.651504  6966 net.cpp:91] Creating Layer loss
I0803 17:38:34.651511  6966 net.cpp:425] loss <- 68point_68point_0_split_0
I0803 17:38:34.651518  6966 net.cpp:425] loss <- label_facial_point_1_split_0
I0803 17:38:34.651527  6966 net.cpp:399] loss -> loss
I0803 17:38:34.651567  6966 net.cpp:141] Setting up loss
I0803 17:38:34.651576  6966 net.cpp:148] Top shape: (1)
I0803 17:38:34.651582  6966 net.cpp:151]     with loss weight 1
I0803 17:38:34.651664  6966 net.cpp:156] Memory required for data: 1425387524
I0803 17:38:34.651671  6966 layer_factory.hpp:77] Creating layer loc_reg_
I0803 17:38:34.651684  6966 net.cpp:91] Creating Layer loc_reg_
I0803 17:38:34.651690  6966 net.cpp:425] loc_reg_ <- 68point_68point_0_split_1
I0803 17:38:34.651697  6966 net.cpp:399] loc_reg_ -> theta
I0803 17:38:34.651861  6966 net.cpp:141] Setting up loc_reg_
I0803 17:38:34.651895  6966 net.cpp:148] Top shape: 64 4 (256)
I0803 17:38:34.651903  6966 net.cpp:156] Memory required for data: 1425388548
I0803 17:38:34.651918  6966 layer_factory.hpp:77] Creating layer theta_loc_reg__0_split
I0803 17:38:34.651928  6966 net.cpp:91] Creating Layer theta_loc_reg__0_split
I0803 17:38:34.651935  6966 net.cpp:425] theta_loc_reg__0_split <- theta
I0803 17:38:34.651944  6966 net.cpp:399] theta_loc_reg__0_split -> theta_loc_reg__0_split_0
I0803 17:38:34.651954  6966 net.cpp:399] theta_loc_reg__0_split -> theta_loc_reg__0_split_1
I0803 17:38:34.651963  6966 net.cpp:399] theta_loc_reg__0_split -> theta_loc_reg__0_split_2
I0803 17:38:34.652007  6966 net.cpp:141] Setting up theta_loc_reg__0_split
I0803 17:38:34.652017  6966 net.cpp:148] Top shape: 64 4 (256)
I0803 17:38:34.652024  6966 net.cpp:148] Top shape: 64 4 (256)
I0803 17:38:34.652030  6966 net.cpp:148] Top shape: 64 4 (256)
I0803 17:38:34.652036  6966 net.cpp:156] Memory required for data: 1425391620
I0803 17:38:34.652043  6966 layer_factory.hpp:77] Creating layer theta_loss
I0803 17:38:34.652053  6966 net.cpp:91] Creating Layer theta_loss
I0803 17:38:34.652060  6966 net.cpp:425] theta_loss <- theta_loc_reg__0_split_0
I0803 17:38:34.652067  6966 net.cpp:399] theta_loss -> theta_loss
I0803 17:38:34.652117  6966 net.cpp:141] Setting up theta_loss
I0803 17:38:34.652125  6966 net.cpp:148] Top shape: (1)
I0803 17:38:34.652143  6966 net.cpp:151]     with loss weight 1
I0803 17:38:34.652149  6966 net.cpp:156] Memory required for data: 1425391624
I0803 17:38:34.652154  6966 layer_factory.hpp:77] Creating layer st_pts
I0803 17:38:34.652171  6966 net.cpp:91] Creating Layer st_pts
I0803 17:38:34.652179  6966 net.cpp:425] st_pts <- label_facial_point_1_split_1
I0803 17:38:34.652186  6966 net.cpp:425] st_pts <- theta_loc_reg__0_split_1
I0803 17:38:34.652194  6966 net.cpp:399] st_pts -> local/label
I0803 17:38:34.652217  6966 net.cpp:141] Setting up st_pts
I0803 17:38:34.652226  6966 net.cpp:148] Top shape: 64 136 1 1 (8704)
I0803 17:38:34.652231  6966 net.cpp:156] Memory required for data: 1425426440
I0803 17:38:34.652237  6966 layer_factory.hpp:77] Creating layer st_layer
I0803 17:38:34.652247  6966 net.cpp:91] Creating Layer st_layer
I0803 17:38:34.652252  6966 net.cpp:425] st_layer <- data_facial_point_0_split_1
I0803 17:38:34.652259  6966 net.cpp:425] st_layer <- theta_loc_reg__0_split_2
I0803 17:38:34.652266  6966 net.cpp:399] st_layer -> local/data
I0803 17:38:34.676517  6966 net.cpp:141] Setting up st_layer
I0803 17:38:34.676537  6966 net.cpp:148] Top shape: 64 3 224 224 (9633792)
I0803 17:38:34.676543  6966 net.cpp:156] Memory required for data: 1463961608
I0803 17:38:34.676550  6966 layer_factory.hpp:77] Creating layer local_conv1
I0803 17:38:34.676566  6966 net.cpp:91] Creating Layer local_conv1
I0803 17:38:34.676574  6966 net.cpp:425] local_conv1 <- local/data
I0803 17:38:34.676584  6966 net.cpp:399] local_conv1 -> local/conv1
I0803 17:38:34.676887  6966 net.cpp:141] Setting up local_conv1
I0803 17:38:34.676900  6966 net.cpp:148] Top shape: 64 96 109 109 (72996864)
I0803 17:38:34.676918  6966 net.cpp:156] Memory required for data: 1755949064
I0803 17:38:34.676934  6966 layer_factory.hpp:77] Creating layer local_relu1
I0803 17:38:34.676951  6966 net.cpp:91] Creating Layer local_relu1
I0803 17:38:34.676959  6966 net.cpp:425] local_relu1 <- local/conv1
I0803 17:38:34.676970  6966 net.cpp:386] local_relu1 -> local/conv1 (in-place)
I0803 17:38:34.676980  6966 net.cpp:141] Setting up local_relu1
I0803 17:38:34.676987  6966 net.cpp:148] Top shape: 64 96 109 109 (72996864)
I0803 17:38:34.676992  6966 net.cpp:156] Memory required for data: 2047936520
I0803 17:38:34.676998  6966 layer_factory.hpp:77] Creating layer local_norm1
I0803 17:38:34.677009  6966 net.cpp:91] Creating Layer local_norm1
I0803 17:38:34.677016  6966 net.cpp:425] local_norm1 <- local/conv1
I0803 17:38:34.677022  6966 net.cpp:399] local_norm1 -> local/norm1
I0803 17:38:34.677058  6966 net.cpp:141] Setting up local_norm1
I0803 17:38:34.677068  6966 net.cpp:148] Top shape: 64 96 109 109 (72996864)
I0803 17:38:34.677089  6966 net.cpp:156] Memory required for data: 2339923976
I0803 17:38:34.677096  6966 layer_factory.hpp:77] Creating layer local_pool1
I0803 17:38:34.677108  6966 net.cpp:91] Creating Layer local_pool1
I0803 17:38:34.677114  6966 net.cpp:425] local_pool1 <- local/norm1
I0803 17:38:34.677122  6966 net.cpp:399] local_pool1 -> local/pool1
I0803 17:38:34.677160  6966 net.cpp:141] Setting up local_pool1
I0803 17:38:34.677168  6966 net.cpp:148] Top shape: 64 96 37 37 (8411136)
I0803 17:38:34.677175  6966 net.cpp:156] Memory required for data: 2373568520
I0803 17:38:34.677182  6966 layer_factory.hpp:77] Creating layer local_conv2
I0803 17:38:34.677196  6966 net.cpp:91] Creating Layer local_conv2
I0803 17:38:34.677202  6966 net.cpp:425] local_conv2 <- local/pool1
I0803 17:38:34.677211  6966 net.cpp:399] local_conv2 -> local/conv2
I0803 17:38:34.682196  6966 net.cpp:141] Setting up local_conv2
I0803 17:38:34.682214  6966 net.cpp:148] Top shape: 64 256 33 33 (17842176)
I0803 17:38:34.682221  6966 net.cpp:156] Memory required for data: 2444937224
I0803 17:38:34.682229  6966 layer_factory.hpp:77] Creating layer local_relu2
I0803 17:38:34.682240  6966 net.cpp:91] Creating Layer local_relu2
I0803 17:38:34.682245  6966 net.cpp:425] local_relu2 <- local/conv2
I0803 17:38:34.682252  6966 net.cpp:386] local_relu2 -> local/conv2 (in-place)
I0803 17:38:34.682261  6966 net.cpp:141] Setting up local_relu2
I0803 17:38:34.682268  6966 net.cpp:148] Top shape: 64 256 33 33 (17842176)
I0803 17:38:34.682273  6966 net.cpp:156] Memory required for data: 2516305928
I0803 17:38:34.682278  6966 layer_factory.hpp:77] Creating layer local_pool2
I0803 17:38:34.682287  6966 net.cpp:91] Creating Layer local_pool2
I0803 17:38:34.682293  6966 net.cpp:425] local_pool2 <- local/conv2
I0803 17:38:34.682301  6966 net.cpp:399] local_pool2 -> local/pool2
I0803 17:38:34.682338  6966 net.cpp:141] Setting up local_pool2
I0803 17:38:34.682348  6966 net.cpp:148] Top shape: 64 256 17 17 (4734976)
I0803 17:38:34.682354  6966 net.cpp:156] Memory required for data: 2535245832
I0803 17:38:34.682359  6966 layer_factory.hpp:77] Creating layer local_conv3
I0803 17:38:34.682382  6966 net.cpp:91] Creating Layer local_conv3
I0803 17:38:34.682389  6966 net.cpp:425] local_conv3 <- local/pool2
I0803 17:38:34.682399  6966 net.cpp:399] local_conv3 -> local/conv3
I0803 17:38:34.691653  6966 net.cpp:141] Setting up local_conv3
I0803 17:38:34.691676  6966 net.cpp:148] Top shape: 64 512 17 17 (9469952)
I0803 17:38:34.691682  6966 net.cpp:156] Memory required for data: 2573125640
I0803 17:38:34.691691  6966 layer_factory.hpp:77] Creating layer local_relu3
I0803 17:38:34.691700  6966 net.cpp:91] Creating Layer local_relu3
I0803 17:38:34.691706  6966 net.cpp:425] local_relu3 <- local/conv3
I0803 17:38:34.691715  6966 net.cpp:386] local_relu3 -> local/conv3 (in-place)
I0803 17:38:34.691723  6966 net.cpp:141] Setting up local_relu3
I0803 17:38:34.691730  6966 net.cpp:148] Top shape: 64 512 17 17 (9469952)
I0803 17:38:34.691735  6966 net.cpp:156] Memory required for data: 2611005448
I0803 17:38:34.691740  6966 layer_factory.hpp:77] Creating layer local_conv4
I0803 17:38:34.691752  6966 net.cpp:91] Creating Layer local_conv4
I0803 17:38:34.691758  6966 net.cpp:425] local_conv4 <- local/conv3
I0803 17:38:34.691767  6966 net.cpp:399] local_conv4 -> local/conv4
I0803 17:38:34.801776  6966 net.cpp:141] Setting up local_conv4
I0803 17:38:34.801831  6966 net.cpp:148] Top shape: 64 512 17 17 (9469952)
I0803 17:38:34.801846  6966 net.cpp:156] Memory required for data: 2648885256
I0803 17:38:34.801864  6966 layer_factory.hpp:77] Creating layer local_relu4
I0803 17:38:34.801883  6966 net.cpp:91] Creating Layer local_relu4
I0803 17:38:34.801898  6966 net.cpp:425] local_relu4 <- local/conv4
I0803 17:38:34.801915  6966 net.cpp:386] local_relu4 -> local/conv4 (in-place)
I0803 17:38:34.801936  6966 net.cpp:141] Setting up local_relu4
I0803 17:38:34.801961  6966 net.cpp:148] Top shape: 64 512 17 17 (9469952)
I0803 17:38:34.801972  6966 net.cpp:156] Memory required for data: 2686765064
I0803 17:38:34.802016  6966 layer_factory.hpp:77] Creating layer local_conv5
I0803 17:38:34.802038  6966 net.cpp:91] Creating Layer local_conv5
I0803 17:38:34.802054  6966 net.cpp:425] local_conv5 <- local/conv4
I0803 17:38:34.802069  6966 net.cpp:399] local_conv5 -> local/conv5
I0803 17:38:34.884651  6966 net.cpp:141] Setting up local_conv5
I0803 17:38:34.884711  6966 net.cpp:148] Top shape: 64 512 17 17 (9469952)
I0803 17:38:34.884726  6966 net.cpp:156] Memory required for data: 2724644872
I0803 17:38:34.884747  6966 layer_factory.hpp:77] Creating layer local_relu5
I0803 17:38:34.884789  6966 net.cpp:91] Creating Layer local_relu5
I0803 17:38:34.884806  6966 net.cpp:425] local_relu5 <- local/conv5
I0803 17:38:34.884827  6966 net.cpp:386] local_relu5 -> local/conv5 (in-place)
I0803 17:38:34.884858  6966 net.cpp:141] Setting up local_relu5
I0803 17:38:34.884888  6966 net.cpp:148] Top shape: 64 512 17 17 (9469952)
I0803 17:38:34.884902  6966 net.cpp:156] Memory required for data: 2762524680
I0803 17:38:34.884914  6966 layer_factory.hpp:77] Creating layer local_pool3
I0803 17:38:34.884933  6966 net.cpp:91] Creating Layer local_pool3
I0803 17:38:34.884955  6966 net.cpp:425] local_pool3 <- local/conv5
I0803 17:38:34.884973  6966 net.cpp:399] local_pool3 -> local/pool3
I0803 17:38:34.885049  6966 net.cpp:141] Setting up local_pool3
I0803 17:38:34.885071  6966 net.cpp:148] Top shape: 64 512 6 6 (1179648)
I0803 17:38:34.885083  6966 net.cpp:156] Memory required for data: 2767243272
I0803 17:38:34.885097  6966 layer_factory.hpp:77] Creating layer local_fc6
I0803 17:38:34.885120  6966 net.cpp:91] Creating Layer local_fc6
I0803 17:38:34.885136  6966 net.cpp:425] local_fc6 <- local/pool3
I0803 17:38:34.885155  6966 net.cpp:399] local_fc6 -> local/fc6
I0803 17:38:35.725273  6966 net.cpp:141] Setting up local_fc6
I0803 17:38:35.725323  6966 net.cpp:148] Top shape: 64 4096 (262144)
I0803 17:38:35.725332  6966 net.cpp:156] Memory required for data: 2768291848
I0803 17:38:35.725348  6966 layer_factory.hpp:77] Creating layer local_relu6
I0803 17:38:35.725366  6966 net.cpp:91] Creating Layer local_relu6
I0803 17:38:35.725378  6966 net.cpp:425] local_relu6 <- local/fc6
I0803 17:38:35.725389  6966 net.cpp:386] local_relu6 -> local/fc6 (in-place)
I0803 17:38:35.725404  6966 net.cpp:141] Setting up local_relu6
I0803 17:38:35.725414  6966 net.cpp:148] Top shape: 64 4096 (262144)
I0803 17:38:35.725421  6966 net.cpp:156] Memory required for data: 2769340424
I0803 17:38:35.725430  6966 layer_factory.hpp:77] Creating layer local_drop6
I0803 17:38:35.725443  6966 net.cpp:91] Creating Layer local_drop6
I0803 17:38:35.725451  6966 net.cpp:425] local_drop6 <- local/fc6
I0803 17:38:35.725462  6966 net.cpp:386] local_drop6 -> local/fc6 (in-place)
I0803 17:38:35.725492  6966 net.cpp:141] Setting up local_drop6
I0803 17:38:35.725505  6966 net.cpp:148] Top shape: 64 4096 (262144)
I0803 17:38:35.725513  6966 net.cpp:156] Memory required for data: 2770389000
I0803 17:38:35.725522  6966 layer_factory.hpp:77] Creating layer local_fc7
I0803 17:38:35.725534  6966 net.cpp:91] Creating Layer local_fc7
I0803 17:38:35.725543  6966 net.cpp:425] local_fc7 <- local/fc6
I0803 17:38:35.725554  6966 net.cpp:399] local_fc7 -> local/fc7
I0803 17:38:35.888947  6966 net.cpp:141] Setting up local_fc7
I0803 17:38:35.888990  6966 net.cpp:148] Top shape: 64 4096 (262144)
I0803 17:38:35.889001  6966 net.cpp:156] Memory required for data: 2771437576
I0803 17:38:35.889015  6966 layer_factory.hpp:77] Creating layer local_relu7
I0803 17:38:35.889036  6966 net.cpp:91] Creating Layer local_relu7
I0803 17:38:35.889046  6966 net.cpp:425] local_relu7 <- local/fc7
I0803 17:38:35.889057  6966 net.cpp:386] local_relu7 -> local/fc7 (in-place)
I0803 17:38:35.889071  6966 net.cpp:141] Setting up local_relu7
I0803 17:38:35.889081  6966 net.cpp:148] Top shape: 64 4096 (262144)
I0803 17:38:35.889088  6966 net.cpp:156] Memory required for data: 2772486152
I0803 17:38:35.889096  6966 layer_factory.hpp:77] Creating layer local_drop7
I0803 17:38:35.889109  6966 net.cpp:91] Creating Layer local_drop7
I0803 17:38:35.889145  6966 net.cpp:425] local_drop7 <- local/fc7
I0803 17:38:35.889158  6966 net.cpp:386] local_drop7 -> local/fc7 (in-place)
I0803 17:38:35.889194  6966 net.cpp:141] Setting up local_drop7
I0803 17:38:35.889206  6966 net.cpp:148] Top shape: 64 4096 (262144)
I0803 17:38:35.889215  6966 net.cpp:156] Memory required for data: 2773534728
I0803 17:38:35.889224  6966 layer_factory.hpp:77] Creating layer local_68point
I0803 17:38:35.889237  6966 net.cpp:91] Creating Layer local_68point
I0803 17:38:35.889246  6966 net.cpp:425] local_68point <- local/fc7
I0803 17:38:35.902678  6966 net.cpp:399] local_68point -> local/68point
I0803 17:38:35.908190  6966 net.cpp:141] Setting up local_68point
I0803 17:38:35.908215  6966 net.cpp:148] Top shape: 64 136 (8704)
I0803 17:38:35.908223  6966 net.cpp:156] Memory required for data: 2773569544
I0803 17:38:35.908246  6966 layer_factory.hpp:77] Creating layer local_loss
I0803 17:38:35.908272  6966 net.cpp:91] Creating Layer local_loss
I0803 17:38:35.908280  6966 net.cpp:425] local_loss <- local/68point
I0803 17:38:35.908291  6966 net.cpp:425] local_loss <- local/label
I0803 17:38:35.908308  6966 net.cpp:399] local_loss -> local/loss
…
