…
I0803 17:09:10.878497  6069 net.cpp:313] The NetState phase (0) differed from the phase (1) specified by a rule in layer facial_point
I0803 17:09:10.878803  6069 net.cpp:49] Initializing net from parameters: 
name: "facial_point_net"
state {
  phase: TRAIN
}
layer {
  name: "facial_point"
  type: "NewFacialPointData"
  top: "data"
  top: "label"
  include {
    phase: TRAIN
  }
  new_facial_point_data_param {
    source: "train_aug_list.txt"
    batch_size: 32
    shuffle: true
    new_height: 224
    new_width: 224
    is_color: true
    point_num: 68
    ext_scale: 1.2
    xy_mean: 0.03
    xy_std: 0.03
    wh_mean: 1
    wh_std: 0.03
  }
}
layer {
  name: "conv1"
  type: "Convolution"
  bottom: "data"
  top: "conv1"
  param {
    lr_mult: 1
    decay_mult: 1
  }
  param {
    lr_mult: 2
    decay_mult: 0
  }
  convolution_param {
    num_output: 96
    kernel_size: 7
    stride: 2
    weight_filler {
      type: "xavier"
    }
    bias_filler {
      type: "constant"
      value: 0.2
    }
  }
}
layer {
  name: "relu1"
  type: "ReLU"
  bottom: "conv1"
  top: "conv1"
}
layer {
  name: "norm1"
  type: "LRN"
  bottom: "conv1"
  top: "norm1"
  lrn_param {
    local_size: 5
    alpha: 0.0005
    beta: 0.75
    k: 2
  }
}
layer {
  name: "pool1"
  type: "Pooling"
  bottom: "norm1"
  top: "pool1"
  pooling_param {
    pool: MAX
    kernel_size: 3
    stride: 3
  }
}
layer {
  name: "conv2"
  type: "Convolution"
  bottom: "pool1"
  top: "conv2"
  param {
    lr_mult: 1
    decay_mult: 1
  }
  param {
    lr_mult: 2
    decay_mult: 0
  }
  convolution_param {
    num_output: 256
    kernel_size: 5
    weight_filler {
      type: "xavier"
    }
    bias_filler {
      type: "constant"
      value: 0.2
    }
  }
}
layer {
  name: "relu2"
  type: "ReLU"
  bottom: "conv2"
  top: "conv2"
}
layer {
  name: "pool2"
  type: "Pooling"
  bottom: "conv2"
  top: "pool2"
  pooling_param {
    pool: MAX
    kernel_size: 2
    stride: 2
  }
}
layer {
  name: "conv3"
  type: "Convolution"
  bottom: "pool2"
  top: "conv3"
  param {
    lr_mult: 1
    decay_mult: 1
  }
  param {
    lr_mult: 2
    decay_mult: 0
  }
  convolution_param {
    num_output: 512
    pad: 1
    kernel_size: 3
    weight_filler {
      type: "xavier"
    }
    bias_filler {
      type: "constant"
      value: 0.2
    }
  }
}
layer {
  name: "relu3"
  type: "ReLU"
  bottom: "conv3"
  top: "conv3"
}
layer {
  name: "conv4"
  type: "Convolution"
  bottom: "conv3"
  top: "conv4"
  param {
    lr_mult: 1
    decay_mult: 1
  }
  param {
    lr_mult: 2
    decay_mult: 0
  }
  convolution_param {
    num_output: 512
    pad: 1
    kernel_size: 3
    weight_filler {
      type: "xavier"
    }
    bias_filler {
      type: "constant"
      value: 0.2
    }
  }
}
layer {
  name: "relu4"
  type: "ReLU"
  bottom: "conv4"
  top: "conv4"
}
layer {
  name: "conv5"
  type: "Convolution"
  bottom: "conv4"
  top: "conv5"
  param {
    lr_mult: 1
    decay_mult: 1
  }
  param {
    lr_mult: 2
    decay_mult: 0
  }
  convolution_param {
    num_output: 512
    pad: 1
    kernel_size: 3
    weight_filler {
      type: "xavier"
    }
    bias_filler {
      type: "constant"
      value: 0.2
    }
  }
}
layer {
  name: "relu5"
  type: "ReLU"
  bottom: "conv5"
  top: "conv5"
}
layer {
  name: "pool3"
  type: "Pooling"
  bottom: "conv5"
  top: "pool3"
  pooling_param {
    pool: MAX
    kernel_size: 3
    stride: 3
  }
}
layer {
  name: "fc6"
  type: "InnerProduct"
  bottom: "pool3"
  top: "fc6"
  param {
    lr_mult: 1
    decay_mult: 1
  }
  param {
    lr_mult: 2
    decay_mult: 0
  }
  inner_product_param {
    num_output: 4096
    weight_filler {
      type: "xavier"
    }
    bias_filler {
      type: "constant"
      value: 0
    }
  }
}
layer {
  name: "relu6"
  type: "ReLU"
  bottom: "fc6"
  top: "fc6"
}
layer {
  name: "drop6"
  type: "Dropout"
  bottom: "fc6"
  top: "fc6"
  dropout_param {
    dropout_ratio: 0.5
  }
}
layer {
  name: "fc7"
  type: "InnerProduct"
  bottom: "fc6"
  top: "fc7"
  param {
    lr_mult: 1
    decay_mult: 1
  }
  param {
    lr_mult: 2
    decay_mult: 0
  }
  inner_product_param {
    num_output: 4096
    weight_filler {
      type: "xavier"
    }
    bias_filler {
      type: "constant"
      value: 0
    }
  }
}
layer {
  name: "relu7"
  type: "ReLU"
  bottom: "fc7"
  top: "fc7"
}
layer {
  name: "drop7"
  type: "Dropout"
  bottom: "fc7"
  top: "fc7"
  dropout_param {
    dropout_ratio: 0.5
  }
}
layer {
  name: "68point"
  type: "InnerProduct"
  bottom: "fc7"
  top: "68point"
  param {
    lr_mult: 1
    decay_mult: 1
  }
  param {
    lr_mult: 2
    decay_mult: 0
  }
  inner_product_param {
    num_output: 136
    weight_filler {
      type: "xavier"
    }
    bias_filler {
      type: "constant"
      value: 0
    }
  }
}
layer {
  name: "loss"
  type: "EuclideanLoss"
  bottom: "68point"
  bottom: "label"
  top: "loss"
}
layer {
  name: "loc_reg_affine"
  type: "InnerProduct"
  bottom: "68point"
  top: "theta"
  inner_product_param {
    num_output: 6
    weight_filler {
      type: "constant"
      value: 0
    }
    bias_filler {
      type: "file"
      file: "bias_init.txt"
    }
  }
}
layer {
  name: "theta_loss"
  type: "LocLoss"
  bottom: "theta"
  top: "theta_loss"
  loss_weight: 1
  loc_loss_param {
    threshold: 1
  }
}
layer {
  name: "st_pts"
  type: "PointTransformer"
  bottom: "label"
  bottom: "theta"
  top: "local/label"
  propagate_down: false
  propagate_down: false
  pt_param {
    in_width: 224
    in_height: 224
    out_width: 224
    out_height: 224
    transform_type: AFFINE
  }
}
layer {
  name: "st_layer"
  type: "SpatialTransformer"
  bottom: "data"
  bottom: "theta"
  top: "local/data"
  st_param {
    output_H: 224
    output_W: 224
    to_compute_dU: false
  }
}
layer {
  name: "local_conv1"
  type: "Convolution"
  bottom: "local/data"
  top: "local/conv1"
  param {
    lr_mult: 1
    decay_mult: 1
  }
  param {
    lr_mult: 2
    decay_mult: 0
  }
  convolution_param {
    num_output: 96
    kernel_size: 7
    stride: 2
    weight_filler {
      type: "xavier"
    }
    bias_filler {
      type: "constant"
      value: 0.2
    }
  }
}
layer {
  name: "local_relu1"
  type: "ReLU"
  bottom: "local/conv1"
  top: "local/conv1"
}
layer {
  name: "local_norm1"
  type: "LRN"
  bottom: "local/conv1"
  top: "local/norm1"
  lrn_param {
    local_size: 5
    alpha: 0.0005
    beta: 0.75
    k: 2
  }
}
layer {
  name: "local_pool1"
  type: "Pooling"
  bottom: "local/norm1"
  top: "local/pool1"
  pooling_param {
    pool: MAX
    kernel_size: 3
    stride: 3
  }
}
layer {
  name: "local_conv2"
  type: "Convolution"
  bottom: "local/pool1"
  top: "local/conv2"
  param {
    lr_mult: 1
    decay_mult: 1
  }
  param {
    lr_mult: 2
    decay_mult: 0
  }
  convolution_param {
    num_output: 256
    kernel_size: 5
    weight_filler {
      type: "xavier"
    }
    bias_filler {
      type: "constant"
      value: 0.2
    }
  }
}
layer {
  name: "local_relu2"
  type: "ReLU"
  bottom: "local/conv2"
  top: "local/conv2"
}
layer {
  name: "local_pool2"
  type: "Pooling"
  bottom: "local/conv2"
  top: "local/pool2"
  pooling_param {
    pool: MAX
    kernel_size: 2
    stride: 2
  }
}
layer {
  name: "local_conv3"
  type: "Convolution"
  bottom: "local/pool2"
  top: "local/conv3"
  param {
    lr_mult: 1
    decay_mult: 1
  }
  param {
    lr_mult: 2
    decay_mult: 0
  }
  convolution_param {
    num_output: 512
    pad: 1
    kernel_size: 3
    weight_filler {
      type: "xavier"
    }
    bias_filler {
      type: "constant"
      value: 0.2
    }
  }
}
layer {
  name: "local_relu3"
  type: "ReLU"
  bottom: "local/conv3"
  top: "local/conv3"
}
layer {
  name: "local_conv4"
  type: "Convolution"
  bottom: "local/conv3"
  top: "local/conv4"
  param {
    lr_mult: 1
    decay_mult: 1
  }
  param {
    lr_mult: 2
    decay_mult: 0
  }
  convolution_param {
    num_output: 512
    pad: 1
    kernel_size: 3
    weight_filler {
      type: "xavier"
    }
    bias_filler {
      type: "constant"
      value: 0.2
    }
  }
}
layer {
  name: "local_relu4"
  type: "ReLU"
  bottom: "local/conv4"
  top: "local/conv4"
}
layer {
  name: "local_conv5"
  type: "Convolution"
  bottom: "local/conv4"
  top: "local/conv5"
  param {
    lr_mult: 1
    decay_mult: 1
  }
  param {
    lr_mult: 2
    decay_mult: 0
  }
  convolution_param {
    num_output: 512
    pad: 1
    kernel_size: 3
    weight_filler {
      type: "xavier"
    }
    bias_filler {
      type: "constant"
      value: 0.2
    }
  }
}
layer {
  name: "local_relu5"
  type: "ReLU"
  bottom: "local/conv5"
  top: "local/conv5"
}
layer {
  name: "local_pool3"
  type: "Pooling"
  bottom: "local/conv5"
  top: "local/pool3"
  pooling_param {
    pool: MAX
    kernel_size: 3
    stride: 3
  }
}
layer {
  name: "local_fc6"
  type: "InnerProduct"
  bottom: "local/pool3"
  top: "local/fc6"
  param {
    lr_mult: 1
    decay_mult: 1
  }
  param {
    lr_mult: 2
    decay_mult: 0
  }
  inner_product_param {
    num_output: 4096
    weight_filler {
      type: "xavier"
    }
    bias_filler {
      type: "constant"
      value: 0
    }
  }
}
layer {
  name: "local_relu6"
  type: "ReLU"
  bottom: "local/fc6"
  top: "local/fc6"
}
layer {
  name: "local_drop6"
  type: "Dropout"
  bottom: "local/fc6"
  top: "local/fc6"
  dropout_param {
    dropout_ratio: 0.5
  }
}
layer {
  name: "local_fc7"
  type: "InnerProduct"
  bottom: "local/fc6"
  top: "local/fc7"
  param {
    lr_mult: 1
    decay_mult: 1
  }
  param {
    lr_mult: 2
    decay_mult: 0
  }
  inner_product_param {
    num_output: 4096
    weight_filler {
      type: "xavier"
    }
    bias_filler {
      type: "constant"
      value: 0
    }
  }
}
layer {
  name: "local_relu7"
  type: "ReLU"
  bottom: "local/fc7"
  top: "local/fc7"
}
layer {
  name: "local_drop7"
  type: "Dropout"
  bottom: "local/fc7"
  top: "local/fc7"
  dropout_param {
    dropout_ratio: 0.5
  }
}
layer {
  name: "local_68point"
  type: "InnerProduct"
  bottom: "local/fc7"
  top: "local/68point"
  param {
    lr_mult: 1
    decay_mult: 1
  }
  param {
    lr_mult: 2
    decay_mult: 0
  }
  inner_product_param {
    num_output: 136
    weight_filler {
      type: "xavier"
    }
    bias_filler {
      type: "constant"
      value: 0
    }
  }
}
layer {
  name: "local_loss"
  type: "EuclideanLoss"
  bottom: "local/68point"
  bottom: "local/label"
  top: "local/loss"
}
I0803 17:09:10.880496  6069 layer_factory.hpp:77] Creating layer facial_point
I0803 17:09:10.880548  6069 net.cpp:91] Creating Layer facial_point
I0803 17:09:10.880559  6069 net.cpp:399] facial_point -> data
I0803 17:09:10.880589  6069 net.cpp:399] facial_point -> label
I0803 17:09:10.880607  6069 new_facial_point_data_layer.cpp:187] Opening file train_aug_list.txt
I0803 17:09:10.884806  6069 new_facial_point_data_layer.cpp:197] Shuffling data
I0803 17:09:10.885962  6069 new_facial_point_data_layer.cpp:203] A total of 12592 images.
I0803 17:09:10.938750  6069 new_facial_point_data_layer.cpp:263] output data size: 32,3,224,224
I0803 17:09:10.979109  6069 net.cpp:141] Setting up facial_point
I0803 17:09:10.979185  6069 net.cpp:148] Top shape: 32 3 224 224 (4816896)
I0803 17:09:10.979198  6069 net.cpp:148] Top shape: 32 136 (4352)
I0803 17:09:10.979205  6069 net.cpp:156] Memory required for data: 19284992
I0803 17:09:10.979221  6069 layer_factory.hpp:77] Creating layer data_facial_point_0_split
I0803 17:09:10.979254  6069 net.cpp:91] Creating Layer data_facial_point_0_split
I0803 17:09:10.979264  6069 net.cpp:425] data_facial_point_0_split <- data
I0803 17:09:10.979282  6069 net.cpp:399] data_facial_point_0_split -> data_facial_point_0_split_0
I0803 17:09:10.979300  6069 net.cpp:399] data_facial_point_0_split -> data_facial_point_0_split_1
I0803 17:09:10.979414  6069 net.cpp:141] Setting up data_facial_point_0_split
I0803 17:09:10.979459  6069 net.cpp:148] Top shape: 32 3 224 224 (4816896)
I0803 17:09:10.979467  6069 net.cpp:148] Top shape: 32 3 224 224 (4816896)
I0803 17:09:10.979475  6069 net.cpp:156] Memory required for data: 57820160
I0803 17:09:10.979480  6069 layer_factory.hpp:77] Creating layer label_facial_point_1_split
I0803 17:09:10.979491  6069 net.cpp:91] Creating Layer label_facial_point_1_split
I0803 17:09:10.979498  6069 net.cpp:425] label_facial_point_1_split <- label
I0803 17:09:10.979507  6069 net.cpp:399] label_facial_point_1_split -> label_facial_point_1_split_0
I0803 17:09:10.979517  6069 net.cpp:399] label_facial_point_1_split -> label_facial_point_1_split_1
I0803 17:09:10.979560  6069 net.cpp:141] Setting up label_facial_point_1_split
I0803 17:09:10.979573  6069 net.cpp:148] Top shape: 32 136 (4352)
I0803 17:09:10.979578  6069 net.cpp:148] Top shape: 32 136 (4352)
I0803 17:09:10.979585  6069 net.cpp:156] Memory required for data: 57854976
I0803 17:09:10.979591  6069 layer_factory.hpp:77] Creating layer conv1
I0803 17:09:10.979616  6069 net.cpp:91] Creating Layer conv1
I0803 17:09:10.979624  6069 net.cpp:425] conv1 <- data_facial_point_0_split_0
I0803 17:09:10.979635  6069 net.cpp:399] conv1 -> conv1
I0803 17:09:10.979985  6069 net.cpp:141] Setting up conv1
I0803 17:09:10.980012  6069 net.cpp:148] Top shape: 32 96 109 109 (36498432)
I0803 17:09:10.980020  6069 net.cpp:156] Memory required for data: 203848704
I0803 17:09:10.980039  6069 layer_factory.hpp:77] Creating layer relu1
I0803 17:09:10.980051  6069 net.cpp:91] Creating Layer relu1
I0803 17:09:10.980058  6069 net.cpp:425] relu1 <- conv1
I0803 17:09:10.980067  6069 net.cpp:386] relu1 -> conv1 (in-place)
I0803 17:09:10.980082  6069 net.cpp:141] Setting up relu1
I0803 17:09:10.980090  6069 net.cpp:148] Top shape: 32 96 109 109 (36498432)
I0803 17:09:10.980096  6069 net.cpp:156] Memory required for data: 349842432
I0803 17:09:10.980103  6069 layer_factory.hpp:77] Creating layer norm1
I0803 17:09:10.980113  6069 net.cpp:91] Creating Layer norm1
I0803 17:09:10.980119  6069 net.cpp:425] norm1 <- conv1
I0803 17:09:10.980128  6069 net.cpp:399] norm1 -> norm1
I0803 17:09:10.980172  6069 net.cpp:141] Setting up norm1
I0803 17:09:10.980185  6069 net.cpp:148] Top shape: 32 96 109 109 (36498432)
I0803 17:09:10.980190  6069 net.cpp:156] Memory required for data: 495836160
I0803 17:09:10.980197  6069 layer_factory.hpp:77] Creating layer pool1
I0803 17:09:10.980208  6069 net.cpp:91] Creating Layer pool1
I0803 17:09:10.980216  6069 net.cpp:425] pool1 <- norm1
I0803 17:09:10.980224  6069 net.cpp:399] pool1 -> pool1
I0803 17:09:10.980268  6069 net.cpp:141] Setting up pool1
I0803 17:09:10.980280  6069 net.cpp:148] Top shape: 32 96 37 37 (4205568)
I0803 17:09:10.980286  6069 net.cpp:156] Memory required for data: 512658432
I0803 17:09:10.980293  6069 layer_factory.hpp:77] Creating layer conv2
I0803 17:09:10.980305  6069 net.cpp:91] Creating Layer conv2
I0803 17:09:10.980312  6069 net.cpp:425] conv2 <- pool1
I0803 17:09:10.980324  6069 net.cpp:399] conv2 -> conv2
I0803 17:09:10.985987  6069 net.cpp:141] Setting up conv2
I0803 17:09:10.986029  6069 net.cpp:148] Top shape: 32 256 33 33 (8921088)
I0803 17:09:10.986038  6069 net.cpp:156] Memory required for data: 548342784
I0803 17:09:10.986052  6069 layer_factory.hpp:77] Creating layer relu2
I0803 17:09:10.986064  6069 net.cpp:91] Creating Layer relu2
I0803 17:09:10.986071  6069 net.cpp:425] relu2 <- conv2
I0803 17:09:10.986081  6069 net.cpp:386] relu2 -> conv2 (in-place)
I0803 17:09:10.986093  6069 net.cpp:141] Setting up relu2
I0803 17:09:10.986100  6069 net.cpp:148] Top shape: 32 256 33 33 (8921088)
I0803 17:09:10.986106  6069 net.cpp:156] Memory required for data: 584027136
I0803 17:09:10.986112  6069 layer_factory.hpp:77] Creating layer pool2
I0803 17:09:10.986121  6069 net.cpp:91] Creating Layer pool2
I0803 17:09:10.986129  6069 net.cpp:425] pool2 <- conv2
I0803 17:09:10.986136  6069 net.cpp:399] pool2 -> pool2
I0803 17:09:10.986176  6069 net.cpp:141] Setting up pool2
I0803 17:09:10.986207  6069 net.cpp:148] Top shape: 32 256 17 17 (2367488)
I0803 17:09:10.986213  6069 net.cpp:156] Memory required for data: 593497088
I0803 17:09:10.986220  6069 layer_factory.hpp:77] Creating layer conv3
I0803 17:09:10.986233  6069 net.cpp:91] Creating Layer conv3
I0803 17:09:10.986240  6069 net.cpp:425] conv3 <- pool2
I0803 17:09:10.986250  6069 net.cpp:399] conv3 -> conv3
I0803 17:09:10.997083  6069 net.cpp:141] Setting up conv3
I0803 17:09:10.997125  6069 net.cpp:148] Top shape: 32 512 17 17 (4734976)
I0803 17:09:10.997134  6069 net.cpp:156] Memory required for data: 612436992
I0803 17:09:10.997149  6069 layer_factory.hpp:77] Creating layer relu3
I0803 17:09:10.997164  6069 net.cpp:91] Creating Layer relu3
I0803 17:09:10.997171  6069 net.cpp:425] relu3 <- conv3
I0803 17:09:10.997182  6069 net.cpp:386] relu3 -> conv3 (in-place)
I0803 17:09:10.997195  6069 net.cpp:141] Setting up relu3
I0803 17:09:10.997202  6069 net.cpp:148] Top shape: 32 512 17 17 (4734976)
I0803 17:09:10.997208  6069 net.cpp:156] Memory required for data: 631376896
I0803 17:09:10.997215  6069 layer_factory.hpp:77] Creating layer conv4
I0803 17:09:10.997228  6069 net.cpp:91] Creating Layer conv4
I0803 17:09:10.997236  6069 net.cpp:425] conv4 <- conv3
I0803 17:09:10.997246  6069 net.cpp:399] conv4 -> conv4
I0803 17:09:11.017187  6069 net.cpp:141] Setting up conv4
I0803 17:09:11.017242  6069 net.cpp:148] Top shape: 32 512 17 17 (4734976)
I0803 17:09:11.017251  6069 net.cpp:156] Memory required for data: 650316800
I0803 17:09:11.017266  6069 layer_factory.hpp:77] Creating layer relu4
I0803 17:09:11.017282  6069 net.cpp:91] Creating Layer relu4
I0803 17:09:11.017290  6069 net.cpp:425] relu4 <- conv4
I0803 17:09:11.017302  6069 net.cpp:386] relu4 -> conv4 (in-place)
I0803 17:09:11.017319  6069 net.cpp:141] Setting up relu4
I0803 17:09:11.017328  6069 net.cpp:148] Top shape: 32 512 17 17 (4734976)
I0803 17:09:11.017333  6069 net.cpp:156] Memory required for data: 669256704
I0803 17:09:11.017340  6069 layer_factory.hpp:77] Creating layer conv5
I0803 17:09:11.017354  6069 net.cpp:91] Creating Layer conv5
I0803 17:09:11.017361  6069 net.cpp:425] conv5 <- conv4
I0803 17:09:11.017372  6069 net.cpp:399] conv5 -> conv5
I0803 17:09:11.359758  6069 net.cpp:141] Setting up conv5
I0803 17:09:11.359829  6069 net.cpp:148] Top shape: 32 512 17 17 (4734976)
I0803 17:09:11.359846  6069 net.cpp:156] Memory required for data: 688196608
I0803 17:09:11.359879  6069 layer_factory.hpp:77] Creating layer relu5
I0803 17:09:11.359910  6069 net.cpp:91] Creating Layer relu5
I0803 17:09:11.359925  6069 net.cpp:425] relu5 <- conv5
I0803 17:09:11.359943  6069 net.cpp:386] relu5 -> conv5 (in-place)
I0803 17:09:11.359969  6069 net.cpp:141] Setting up relu5
I0803 17:09:11.359987  6069 net.cpp:148] Top shape: 32 512 17 17 (4734976)
I0803 17:09:11.359998  6069 net.cpp:156] Memory required for data: 707136512
I0803 17:09:11.360011  6069 layer_factory.hpp:77] Creating layer pool3
I0803 17:09:11.360035  6069 net.cpp:91] Creating Layer pool3
I0803 17:09:11.360049  6069 net.cpp:425] pool3 <- conv5
I0803 17:09:11.360067  6069 net.cpp:399] pool3 -> pool3
I0803 17:09:11.360146  6069 net.cpp:141] Setting up pool3
I0803 17:09:11.360169  6069 net.cpp:148] Top shape: 32 512 6 6 (589824)
I0803 17:09:11.360182  6069 net.cpp:156] Memory required for data: 709495808
I0803 17:09:11.360195  6069 layer_factory.hpp:77] Creating layer fc6
I0803 17:09:11.360216  6069 net.cpp:91] Creating Layer fc6
I0803 17:09:11.360229  6069 net.cpp:425] fc6 <- pool3
I0803 17:09:11.360251  6069 net.cpp:399] fc6 -> fc6
I0803 17:09:12.166817  6069 net.cpp:141] Setting up fc6
I0803 17:09:12.166934  6069 net.cpp:148] Top shape: 32 4096 (131072)
I0803 17:09:12.166944  6069 net.cpp:156] Memory required for data: 710020096
I0803 17:09:12.167004  6069 layer_factory.hpp:77] Creating layer relu6
I0803 17:09:12.167059  6069 net.cpp:91] Creating Layer relu6
I0803 17:09:12.167100  6069 net.cpp:425] relu6 <- fc6
I0803 17:09:12.167112  6069 net.cpp:386] relu6 -> fc6 (in-place)
I0803 17:09:12.167129  6069 net.cpp:141] Setting up relu6
I0803 17:09:12.167168  6069 net.cpp:148] Top shape: 32 4096 (131072)
I0803 17:09:12.167178  6069 net.cpp:156] Memory required for data: 710544384
I0803 17:09:12.167192  6069 layer_factory.hpp:77] Creating layer drop6
I0803 17:09:12.167212  6069 net.cpp:91] Creating Layer drop6
I0803 17:09:12.167222  6069 net.cpp:425] drop6 <- fc6
I0803 17:09:12.167232  6069 net.cpp:386] drop6 -> fc6 (in-place)
I0803 17:09:12.167387  6069 net.cpp:141] Setting up drop6
I0803 17:09:12.167403  6069 net.cpp:148] Top shape: 32 4096 (131072)
I0803 17:09:12.167412  6069 net.cpp:156] Memory required for data: 711068672
I0803 17:09:12.167419  6069 layer_factory.hpp:77] Creating layer fc7
I0803 17:09:12.167443  6069 net.cpp:91] Creating Layer fc7
I0803 17:09:12.167453  6069 net.cpp:425] fc7 <- fc6
I0803 17:09:12.167466  6069 net.cpp:399] fc7 -> fc7
I0803 17:09:12.645547  6069 net.cpp:141] Setting up fc7
I0803 17:09:12.645614  6069 net.cpp:148] Top shape: 32 4096 (131072)
I0803 17:09:12.645627  6069 net.cpp:156] Memory required for data: 711592960
I0803 17:09:12.645647  6069 layer_factory.hpp:77] Creating layer relu7
I0803 17:09:12.645673  6069 net.cpp:91] Creating Layer relu7
I0803 17:09:12.645685  6069 net.cpp:425] relu7 <- fc7
I0803 17:09:12.645700  6069 net.cpp:386] relu7 -> fc7 (in-place)
I0803 17:09:12.645720  6069 net.cpp:141] Setting up relu7
I0803 17:09:12.645731  6069 net.cpp:148] Top shape: 32 4096 (131072)
I0803 17:09:12.645740  6069 net.cpp:156] Memory required for data: 712117248
I0803 17:09:12.645751  6069 layer_factory.hpp:77] Creating layer drop7
I0803 17:09:12.645766  6069 net.cpp:91] Creating Layer drop7
I0803 17:09:12.645774  6069 net.cpp:425] drop7 <- fc7
I0803 17:09:12.645787  6069 net.cpp:386] drop7 -> fc7 (in-place)
I0803 17:09:12.645826  6069 net.cpp:141] Setting up drop7
I0803 17:09:12.645843  6069 net.cpp:148] Top shape: 32 4096 (131072)
I0803 17:09:12.645851  6069 net.cpp:156] Memory required for data: 712641536
I0803 17:09:12.645859  6069 layer_factory.hpp:77] Creating layer 68point
I0803 17:09:12.645879  6069 net.cpp:91] Creating Layer 68point
I0803 17:09:12.645887  6069 net.cpp:425] 68point <- fc7
I0803 17:09:12.645901  6069 net.cpp:399] 68point -> 68point
I0803 17:09:12.910853  6069 net.cpp:141] Setting up 68point
I0803 17:09:12.910939  6069 net.cpp:148] Top shape: 32 136 (4352)
I0803 17:09:12.910959  6069 net.cpp:156] Memory required for data: 712658944
I0803 17:09:12.910987  6069 layer_factory.hpp:77] Creating layer 68point_68point_0_split
I0803 17:09:12.911015  6069 net.cpp:91] Creating Layer 68point_68point_0_split
I0803 17:09:12.911033  6069 net.cpp:425] 68point_68point_0_split <- 68point
I0803 17:09:12.911059  6069 net.cpp:399] 68point_68point_0_split -> 68point_68point_0_split_0
I0803 17:09:12.911108  6069 net.cpp:399] 68point_68point_0_split -> 68point_68point_0_split_1
I0803 17:09:12.911192  6069 net.cpp:141] Setting up 68point_68point_0_split
I0803 17:09:12.911222  6069 net.cpp:148] Top shape: 32 136 (4352)
I0803 17:09:12.911239  6069 net.cpp:148] Top shape: 32 136 (4352)
I0803 17:09:12.911253  6069 net.cpp:156] Memory required for data: 712693760
I0803 17:09:12.911268  6069 layer_factory.hpp:77] Creating layer loss
I0803 17:09:12.911304  6069 net.cpp:91] Creating Layer loss
I0803 17:09:12.911324  6069 net.cpp:425] loss <- 68point_68point_0_split_0
I0803 17:09:12.911341  6069 net.cpp:425] loss <- label_facial_point_1_split_0
I0803 17:09:12.911360  6069 net.cpp:399] loss -> loss
I0803 17:09:12.911453  6069 net.cpp:141] Setting up loss
I0803 17:09:12.911478  6069 net.cpp:148] Top shape: (1)
I0803 17:09:12.911494  6069 net.cpp:151]     with loss weight 1
I0803 17:09:12.911553  6069 net.cpp:156] Memory required for data: 712693764
I0803 17:09:12.911571  6069 layer_factory.hpp:77] Creating layer loc_reg_affine
I0803 17:09:12.911599  6069 net.cpp:91] Creating Layer loc_reg_affine
I0803 17:09:12.911617  6069 net.cpp:425] loc_reg_affine <- 68point_68point_0_split_1
I0803 17:09:12.911636  6069 net.cpp:399] loc_reg_affine -> theta
I0803 17:09:13.354123  6069 net.cpp:141] Setting up loc_reg_affine
I0803 17:09:13.354213  6069 net.cpp:148] Top shape: 32 6 (192)
I0803 17:09:13.354233  6069 net.cpp:156] Memory required for data: 712694532
I0803 17:09:13.354277  6069 layer_factory.hpp:77] Creating layer theta_loc_reg_affine_0_split
I0803 17:09:13.354307  6069 net.cpp:91] Creating Layer theta_loc_reg_affine_0_split
I0803 17:09:13.354326  6069 net.cpp:425] theta_loc_reg_affine_0_split <- theta
I0803 17:09:13.354353  6069 net.cpp:399] theta_loc_reg_affine_0_split -> theta_loc_reg_affine_0_split_0
I0803 17:09:13.354382  6069 net.cpp:399] theta_loc_reg_affine_0_split -> theta_loc_reg_affine_0_split_1
I0803 17:09:13.354405  6069 net.cpp:399] theta_loc_reg_affine_0_split -> theta_loc_reg_affine_0_split_2
I0803 17:09:13.354527  6069 net.cpp:141] Setting up theta_loc_reg_affine_0_split
I0803 17:09:13.354555  6069 net.cpp:148] Top shape: 32 6 (192)
I0803 17:09:13.354573  6069 net.cpp:148] Top shape: 32 6 (192)
I0803 17:09:13.354588  6069 net.cpp:148] Top shape: 32 6 (192)
I0803 17:09:13.354603  6069 net.cpp:156] Memory required for data: 712696836
I0803 17:09:13.354617  6069 layer_factory.hpp:77] Creating layer theta_loss
I0803 17:09:13.354640  6069 net.cpp:91] Creating Layer theta_loss
I0803 17:09:13.354657  6069 net.cpp:425] theta_loss <- theta_loc_reg_affine_0_split_0
I0803 17:09:13.354677  6069 net.cpp:399] theta_loss -> theta_loss
I0803 17:09:13.354807  6069 net.cpp:141] Setting up theta_loss
I0803 17:09:13.354835  6069 net.cpp:148] Top shape: (1)
I0803 17:09:13.354851  6069 net.cpp:151]     with loss weight 1
I0803 17:09:13.354867  6069 net.cpp:156] Memory required for data: 712696840
I0803 17:09:13.354882  6069 layer_factory.hpp:77] Creating layer st_pts
I0803 17:09:13.354908  6069 net.cpp:91] Creating Layer st_pts
I0803 17:09:13.354925  6069 net.cpp:425] st_pts <- label_facial_point_1_split_1
I0803 17:09:13.354943  6069 net.cpp:425] st_pts <- theta_loc_reg_affine_0_split_1
I0803 17:09:13.354969  6069 net.cpp:399] st_pts -> local/label
I0803 17:09:13.355042  6069 net.cpp:141] Setting up st_pts
I0803 17:09:13.355067  6069 net.cpp:148] Top shape: 32 136 1 1 (4352)
I0803 17:09:13.355082  6069 net.cpp:156] Memory required for data: 712714248
I0803 17:09:13.355098  6069 layer_factory.hpp:77] Creating layer st_layer
I0803 17:09:13.355121  6069 net.cpp:91] Creating Layer st_layer
I0803 17:09:13.355137  6069 net.cpp:425] st_layer <- data_facial_point_0_split_1
I0803 17:09:13.355155  6069 net.cpp:425] st_layer <- theta_loc_reg_affine_0_split_2
I0803 17:09:13.355176  6069 net.cpp:399] st_layer -> local/data
I0803 17:09:13.359269  6069 net.cpp:141] Setting up st_layer
I0803 17:09:13.359307  6069 net.cpp:148] Top shape: 32 3 224 224 (4816896)
I0803 17:09:13.359323  6069 net.cpp:156] Memory required for data: 731981832
I0803 17:09:13.359339  6069 layer_factory.hpp:77] Creating layer local_conv1
I0803 17:09:13.359374  6069 net.cpp:91] Creating Layer local_conv1
I0803 17:09:13.359400  6069 net.cpp:425] local_conv1 <- local/data
I0803 17:09:13.359424  6069 net.cpp:399] local_conv1 -> local/conv1
I0803 17:09:13.360138  6069 net.cpp:141] Setting up local_conv1
I0803 17:09:13.360174  6069 net.cpp:148] Top shape: 32 96 109 109 (36498432)
I0803 17:09:13.360189  6069 net.cpp:156] Memory required for data: 877975560
I0803 17:09:13.360211  6069 layer_factory.hpp:77] Creating layer local_relu1
I0803 17:09:13.360244  6069 net.cpp:91] Creating Layer local_relu1
I0803 17:09:13.360262  6069 net.cpp:425] local_relu1 <- local/conv1
I0803 17:09:13.360283  6069 net.cpp:386] local_relu1 -> local/conv1 (in-place)
I0803 17:09:13.360307  6069 net.cpp:141] Setting up local_relu1
I0803 17:09:13.360324  6069 net.cpp:148] Top shape: 32 96 109 109 (36498432)
I0803 17:09:13.360338  6069 net.cpp:156] Memory required for data: 1023969288
I0803 17:09:13.360352  6069 layer_factory.hpp:77] Creating layer local_norm1
I0803 17:09:13.360376  6069 net.cpp:91] Creating Layer local_norm1
I0803 17:09:13.360391  6069 net.cpp:425] local_norm1 <- local/conv1
I0803 17:09:13.360409  6069 net.cpp:399] local_norm1 -> local/norm1
I0803 17:09:13.360492  6069 net.cpp:141] Setting up local_norm1
I0803 17:09:13.360545  6069 net.cpp:148] Top shape: 32 96 109 109 (36498432)
I0803 17:09:13.360560  6069 net.cpp:156] Memory required for data: 1169963016
I0803 17:09:13.360574  6069 layer_factory.hpp:77] Creating layer local_pool1
I0803 17:09:13.360599  6069 net.cpp:91] Creating Layer local_pool1
I0803 17:09:13.360615  6069 net.cpp:425] local_pool1 <- local/norm1
I0803 17:09:13.360632  6069 net.cpp:399] local_pool1 -> local/pool1
I0803 17:09:13.360718  6069 net.cpp:141] Setting up local_pool1
I0803 17:09:13.360740  6069 net.cpp:148] Top shape: 32 96 37 37 (4205568)
I0803 17:09:13.360754  6069 net.cpp:156] Memory required for data: 1186785288
I0803 17:09:13.360769  6069 layer_factory.hpp:77] Creating layer local_conv2
I0803 17:09:13.360797  6069 net.cpp:91] Creating Layer local_conv2
I0803 17:09:13.360813  6069 net.cpp:425] local_conv2 <- local/pool1
I0803 17:09:13.360833  6069 net.cpp:399] local_conv2 -> local/conv2
I0803 17:09:13.372594  6069 net.cpp:141] Setting up local_conv2
I0803 17:09:13.372650  6069 net.cpp:148] Top shape: 32 256 33 33 (8921088)
I0803 17:09:13.372666  6069 net.cpp:156] Memory required for data: 1222469640
I0803 17:09:13.372689  6069 layer_factory.hpp:77] Creating layer local_relu2
I0803 17:09:13.372709  6069 net.cpp:91] Creating Layer local_relu2
I0803 17:09:13.372725  6069 net.cpp:425] local_relu2 <- local/conv2
I0803 17:09:13.372745  6069 net.cpp:386] local_relu2 -> local/conv2 (in-place)
I0803 17:09:13.372766  6069 net.cpp:141] Setting up local_relu2
I0803 17:09:13.372784  6069 net.cpp:148] Top shape: 32 256 33 33 (8921088)
I0803 17:09:13.372798  6069 net.cpp:156] Memory required for data: 1258153992
I0803 17:09:13.372814  6069 layer_factory.hpp:77] Creating layer local_pool2
I0803 17:09:13.372838  6069 net.cpp:91] Creating Layer local_pool2
I0803 17:09:13.372853  6069 net.cpp:425] local_pool2 <- local/conv2
I0803 17:09:13.372884  6069 net.cpp:399] local_pool2 -> local/pool2
I0803 17:09:13.372973  6069 net.cpp:141] Setting up local_pool2
I0803 17:09:13.373003  6069 net.cpp:148] Top shape: 32 256 17 17 (2367488)
I0803 17:09:13.373018  6069 net.cpp:156] Memory required for data: 1267623944
I0803 17:09:13.373030  6069 layer_factory.hpp:77] Creating layer local_conv3
I0803 17:09:13.373059  6069 net.cpp:91] Creating Layer local_conv3
I0803 17:09:13.373085  6069 net.cpp:425] local_conv3 <- local/pool2
I0803 17:09:13.373103  6069 net.cpp:399] local_conv3 -> local/conv3
I0803 17:09:13.393007  6069 net.cpp:141] Setting up local_conv3
I0803 17:09:13.393067  6069 net.cpp:148] Top shape: 32 512 17 17 (4734976)
I0803 17:09:13.393080  6069 net.cpp:156] Memory required for data: 1286563848
I0803 17:09:13.393103  6069 layer_factory.hpp:77] Creating layer local_relu3
I0803 17:09:13.393126  6069 net.cpp:91] Creating Layer local_relu3
I0803 17:09:13.393142  6069 net.cpp:425] local_relu3 <- local/conv3
I0803 17:09:13.393162  6069 net.cpp:386] local_relu3 -> local/conv3 (in-place)
I0803 17:09:13.393191  6069 net.cpp:141] Setting up local_relu3
I0803 17:09:13.393216  6069 net.cpp:148] Top shape: 32 512 17 17 (4734976)
I0803 17:09:13.393227  6069 net.cpp:156] Memory required for data: 1305503752
I0803 17:09:13.393242  6069 layer_factory.hpp:77] Creating layer local_conv4
I0803 17:09:13.393266  6069 net.cpp:91] Creating Layer local_conv4
I0803 17:09:13.393280  6069 net.cpp:425] local_conv4 <- local/conv3
I0803 17:09:13.393299  6069 net.cpp:399] local_conv4 -> local/conv4
I0803 17:09:13.426812  6069 net.cpp:141] Setting up local_conv4
I0803 17:09:13.426864  6069 net.cpp:148] Top shape: 32 512 17 17 (4734976)
I0803 17:09:13.426877  6069 net.cpp:156] Memory required for data: 1324443656
I0803 17:09:13.426903  6069 layer_factory.hpp:77] Creating layer local_relu4
I0803 17:09:13.426929  6069 net.cpp:91] Creating Layer local_relu4
I0803 17:09:13.426944  6069 net.cpp:425] local_relu4 <- local/conv4
I0803 17:09:13.426967  6069 net.cpp:386] local_relu4 -> local/conv4 (in-place)
I0803 17:09:13.426988  6069 net.cpp:141] Setting up local_relu4
I0803 17:09:13.427002  6069 net.cpp:148] Top shape: 32 512 17 17 (4734976)
I0803 17:09:13.427047  6069 net.cpp:156] Memory required for data: 1343383560
I0803 17:09:13.427059  6069 layer_factory.hpp:77] Creating layer local_conv5
I0803 17:09:13.427086  6069 net.cpp:91] Creating Layer local_conv5
I0803 17:09:13.427098  6069 net.cpp:425] local_conv5 <- local/conv4
I0803 17:09:13.427116  6069 net.cpp:399] local_conv5 -> local/conv5
I0803 17:09:13.457027  6069 net.cpp:141] Setting up local_conv5
I0803 17:09:13.457078  6069 net.cpp:148] Top shape: 32 512 17 17 (4734976)
I0803 17:09:13.457088  6069 net.cpp:156] Memory required for data: 1362323464
I0803 17:09:13.457106  6069 layer_factory.hpp:77] Creating layer local_relu5
I0803 17:09:13.457126  6069 net.cpp:91] Creating Layer local_relu5
I0803 17:09:13.457139  6069 net.cpp:425] local_relu5 <- local/conv5
I0803 17:09:13.457156  6069 net.cpp:386] local_relu5 -> local/conv5 (in-place)
I0803 17:09:13.457183  6069 net.cpp:141] Setting up local_relu5
I0803 17:09:13.457195  6069 net.cpp:148] Top shape: 32 512 17 17 (4734976)
I0803 17:09:13.457203  6069 net.cpp:156] Memory required for data: 1381263368
I0803 17:09:13.457221  6069 layer_factory.hpp:77] Creating layer local_pool3
I0803 17:09:13.457234  6069 net.cpp:91] Creating Layer local_pool3
I0803 17:09:13.457243  6069 net.cpp:425] local_pool3 <- local/conv5
I0803 17:09:13.457257  6069 net.cpp:399] local_pool3 -> local/pool3
I0803 17:09:13.457314  6069 net.cpp:141] Setting up local_pool3
I0803 17:09:13.457329  6069 net.cpp:148] Top shape: 32 512 6 6 (589824)
I0803 17:09:13.457337  6069 net.cpp:156] Memory required for data: 1383622664
I0803 17:09:13.457346  6069 layer_factory.hpp:77] Creating layer local_fc6
I0803 17:09:13.457365  6069 net.cpp:91] Creating Layer local_fc6
I0803 17:09:13.457375  6069 net.cpp:425] local_fc6 <- local/pool3
I0803 17:09:13.457386  6069 net.cpp:399] local_fc6 -> local/fc6
I0803 17:09:14.235937  6069 net.cpp:141] Setting up local_fc6
I0803 17:09:14.236002  6069 net.cpp:148] Top shape: 32 4096 (131072)
I0803 17:09:14.236013  6069 net.cpp:156] Memory required for data: 1384146952
I0803 17:09:14.236047  6069 layer_factory.hpp:77] Creating layer local_relu6
I0803 17:09:14.236073  6069 net.cpp:91] Creating Layer local_relu6
I0803 17:09:14.236124  6069 net.cpp:425] local_relu6 <- local/fc6
I0803 17:09:14.236141  6069 net.cpp:386] local_relu6 -> local/fc6 (in-place)
I0803 17:09:14.236160  6069 net.cpp:141] Setting up local_relu6
I0803 17:09:14.236172  6069 net.cpp:148] Top shape: 32 4096 (131072)
I0803 17:09:14.236182  6069 net.cpp:156] Memory required for data: 1384671240
I0803 17:09:14.236192  6069 layer_factory.hpp:77] Creating layer local_drop6
I0803 17:09:14.236217  6069 net.cpp:91] Creating Layer local_drop6
I0803 17:09:14.236228  6069 net.cpp:425] local_drop6 <- local/fc6
I0803 17:09:14.236239  6069 net.cpp:386] local_drop6 -> local/fc6 (in-place)
I0803 17:09:14.236315  6069 net.cpp:141] Setting up local_drop6
I0803 17:09:14.236333  6069 net.cpp:148] Top shape: 32 4096 (131072)
I0803 17:09:14.236343  6069 net.cpp:156] Memory required for data: 1385195528
I0803 17:09:14.236352  6069 layer_factory.hpp:77] Creating layer local_fc7
I0803 17:09:14.236377  6069 net.cpp:91] Creating Layer local_fc7
I0803 17:09:14.236387  6069 net.cpp:425] local_fc7 <- local/fc6
I0803 17:09:14.236402  6069 net.cpp:399] local_fc7 -> local/fc7
I0803 17:09:14.401922  6069 net.cpp:141] Setting up local_fc7
I0803 17:09:14.401975  6069 net.cpp:148] Top shape: 32 4096 (131072)
I0803 17:09:14.401984  6069 net.cpp:156] Memory required for data: 1385719816
I0803 17:09:14.401999  6069 layer_factory.hpp:77] Creating layer local_relu7
I0803 17:09:14.402025  6069 net.cpp:91] Creating Layer local_relu7
I0803 17:09:14.402036  6069 net.cpp:425] local_relu7 <- local/fc7
I0803 17:09:14.402055  6069 net.cpp:386] local_relu7 -> local/fc7 (in-place)
I0803 17:09:14.402070  6069 net.cpp:141] Setting up local_relu7
I0803 17:09:14.402081  6069 net.cpp:148] Top shape: 32 4096 (131072)
I0803 17:09:14.402089  6069 net.cpp:156] Memory required for data: 1386244104
I0803 17:09:14.402097  6069 layer_factory.hpp:77] Creating layer local_drop7
I0803 17:09:14.402153  6069 net.cpp:91] Creating Layer local_drop7
I0803 17:09:14.402163  6069 net.cpp:425] local_drop7 <- local/fc7
I0803 17:09:14.402175  6069 net.cpp:386] local_drop7 -> local/fc7 (in-place)
I0803 17:09:14.402212  6069 net.cpp:141] Setting up local_drop7
I0803 17:09:14.402226  6069 net.cpp:148] Top shape: 32 4096 (131072)
I0803 17:09:14.402235  6069 net.cpp:156] Memory required for data: 1386768392
I0803 17:09:14.402243  6069 layer_factory.hpp:77] Creating layer local_68point
I0803 17:09:14.402261  6069 net.cpp:91] Creating Layer local_68point
I0803 17:09:14.402268  6069 net.cpp:425] local_68point <- local/fc7
I0803 17:09:14.402290  6069 net.cpp:399] local_68point -> local/68point
I0803 17:09:14.407975  6069 net.cpp:141] Setting up local_68point
I0803 17:09:14.408001  6069 net.cpp:148] Top shape: 32 136 (4352)
I0803 17:09:14.408010  6069 net.cpp:156] Memory required for data: 1386785800
I0803 17:09:14.408058  6069 layer_factory.hpp:77] Creating layer local_loss
I0803 17:09:14.408088  6069 net.cpp:91] Creating Layer local_loss
I0803 17:09:14.408098  6069 net.cpp:425] local_loss <- local/68point
I0803 17:09:14.408108  6069 net.cpp:425] local_loss <- local/label
I0803 17:09:14.408126  6069 net.cpp:399] local_loss -> local/loss
…
