…
I0803 17:00:47.593500  5831 net.cpp:313] The NetState phase (0) differed from the phase (1) specified by a rule in layer facial_point
I0803 17:00:47.593843  5831 net.cpp:49] Initializing net from parameters: 
name: "facial_point_net"
state {
  phase: TRAIN
}
layer {
  name: "facial_point"
  type: "NewFacialPointData"
  top: "data"
  top: "label"
  include {
    phase: TRAIN
  }
  new_facial_point_data_param {
    source: "train_aug_list.txt"
    batch_size: 32
    shuffle: true
    new_height: 224
    new_width: 224
    is_color: true
    point_num: 68
    ext_scale: 1.2
    xy_mean: 0.03
    xy_std: 0.03
    wh_mean: 1
    wh_std: 0.03
  }
}
layer {
  name: "conv1"
  type: "Convolution"
  bottom: "data"
  top: "conv1"
  param {
    lr_mult: 1
    decay_mult: 1
  }
  param {
    lr_mult: 2
    decay_mult: 0
  }
  convolution_param {
    num_output: 96
    kernel_size: 7
    stride: 2
    weight_filler {
      type: "xavier"
    }
    bias_filler {
      type: "constant"
      value: 0.2
    }
  }
}
layer {
  name: "relu1"
  type: "ReLU"
  bottom: "conv1"
  top: "conv1"
}
layer {
  name: "norm1"
  type: "LRN"
  bottom: "conv1"
  top: "norm1"
  lrn_param {
    local_size: 5
    alpha: 0.0005
    beta: 0.75
    k: 2
  }
}
layer {
  name: "pool1"
  type: "Pooling"
  bottom: "norm1"
  top: "pool1"
  pooling_param {
    pool: MAX
    kernel_size: 3
    stride: 3
  }
}
layer {
  name: "conv2"
  type: "Convolution"
  bottom: "pool1"
  top: "conv2"
  param {
    lr_mult: 1
    decay_mult: 1
  }
  param {
    lr_mult: 2
    decay_mult: 0
  }
  convolution_param {
    num_output: 256
    kernel_size: 5
    weight_filler {
      type: "xavier"
    }
    bias_filler {
      type: "constant"
      value: 0.2
    }
  }
}
layer {
  name: "relu2"
  type: "ReLU"
  bottom: "conv2"
  top: "conv2"
}
layer {
  name: "pool2"
  type: "Pooling"
  bottom: "conv2"
  top: "pool2"
  pooling_param {
    pool: MAX
    kernel_size: 2
    stride: 2
  }
}
layer {
  name: "conv3"
  type: "Convolution"
  bottom: "pool2"
  top: "conv3"
  param {
    lr_mult: 1
    decay_mult: 1
  }
  param {
    lr_mult: 2
    decay_mult: 0
  }
  convolution_param {
    num_output: 512
    pad: 1
    kernel_size: 3
    weight_filler {
      type: "xavier"
    }
    bias_filler {
      type: "constant"
      value: 0.2
    }
  }
}
layer {
  name: "relu3"
  type: "ReLU"
  bottom: "conv3"
  top: "conv3"
}
layer {
  name: "conv4"
  type: "Convolution"
  bottom: "conv3"
  top: "conv4"
  param {
    lr_mult: 1
    decay_mult: 1
  }
  param {
    lr_mult: 2
    decay_mult: 0
  }
  convolution_param {
    num_output: 512
    pad: 1
    kernel_size: 3
    weight_filler {
      type: "xavier"
    }
    bias_filler {
      type: "constant"
      value: 0.2
    }
  }
}
layer {
  name: "relu4"
  type: "ReLU"
  bottom: "conv4"
  top: "conv4"
}
layer {
  name: "conv5"
  type: "Convolution"
  bottom: "conv4"
  top: "conv5"
  param {
    lr_mult: 1
    decay_mult: 1
  }
  param {
    lr_mult: 2
    decay_mult: 0
  }
  convolution_param {
    num_output: 512
    pad: 1
    kernel_size: 3
    weight_filler {
      type: "xavier"
    }
    bias_filler {
      type: "constant"
      value: 0.2
    }
  }
}
layer {
  name: "relu5"
  type: "ReLU"
  bottom: "conv5"
  top: "conv5"
}
layer {
  name: "pool3"
  type: "Pooling"
  bottom: "conv5"
  top: "pool3"
  pooling_param {
    pool: MAX
    kernel_size: 3
    stride: 3
  }
}
layer {
  name: "fc6"
  type: "InnerProduct"
  bottom: "pool3"
  top: "fc6"
  param {
    lr_mult: 1
    decay_mult: 1
  }
  param {
    lr_mult: 2
    decay_mult: 0
  }
  inner_product_param {
    num_output: 4096
    weight_filler {
      type: "xavier"
    }
    bias_filler {
      type: "constant"
      value: 0
    }
  }
}
layer {
  name: "relu6"
  type: "ReLU"
  bottom: "fc6"
  top: "fc6"
}
layer {
  name: "drop6"
  type: "Dropout"
  bottom: "fc6"
  top: "fc6"
  dropout_param {
    dropout_ratio: 0.5
  }
}
layer {
  name: "fc7"
  type: "InnerProduct"
  bottom: "fc6"
  top: "fc7"
  param {
    lr_mult: 1
    decay_mult: 1
  }
  param {
    lr_mult: 2
    decay_mult: 0
  }
  inner_product_param {
    num_output: 4096
    weight_filler {
      type: "xavier"
    }
    bias_filler {
      type: "constant"
      value: 0
    }
  }
}
layer {
  name: "relu7"
  type: "ReLU"
  bottom: "fc7"
  top: "fc7"
}
layer {
  name: "drop7"
  type: "Dropout"
  bottom: "fc7"
  top: "fc7"
  dropout_param {
    dropout_ratio: 0.5
  }
}
layer {
  name: "68point"
  type: "InnerProduct"
  bottom: "fc7"
  top: "68point"
  param {
    lr_mult: 1
    decay_mult: 1
  }
  param {
    lr_mult: 2
    decay_mult: 0
  }
  inner_product_param {
    num_output: 136
    weight_filler {
      type: "xavier"
    }
    bias_filler {
      type: "constant"
      value: 0
    }
  }
}
layer {
  name: "loss"
  type: "EuclideanLoss"
  bottom: "68point"
  bottom: "label"
  top: "loss"
}
layer {
  name: "loc_reg_affine"
  type: "InnerProduct"
  bottom: "68point"
  top: "theta"
  inner_product_param {
    num_output: 6
    weight_filler {
      type: "constant"
      value: 0
    }
    bias_filler {
      type: "file"
      file: "bias_init.txt"
    }
  }
}
layer {
  name: "theta_loss"
  type: "LocLoss"
  bottom: "theta"
  top: "theta_loss"
  loss_weight: 1
  loc_loss_param {
    threshold: 1
  }
}
layer {
  name: "st_pts"
  type: "PointTransformer"
  bottom: "label"
  bottom: "theta"
  top: "local/label"
  propagate_down: false
  propagate_down: false
  pt_param {
    in_width: 224
    in_height: 224
    out_width: 224
    out_height: 224
    transform_type: CROP
  }
}
layer {
  name: "st_layer"
  type: "SpatialTransformer"
  bottom: "data"
  bottom: "theta"
  top: "local/data"
  st_param {
    output_H: 224
    output_W: 224
    to_compute_dU: false
  }
}
layer {
  name: "local_conv1"
  type: "Convolution"
  bottom: "local/data"
  top: "local/conv1"
  param {
    lr_mult: 1
    decay_mult: 1
  }
  param {
    lr_mult: 2
    decay_mult: 0
  }
  convolution_param {
    num_output: 96
    kernel_size: 7
    stride: 2
    weight_filler {
      type: "xavier"
    }
    bias_filler {
      type: "constant"
      value: 0.2
    }
  }
}
layer {
  name: "local_relu1"
  type: "ReLU"
  bottom: "local/conv1"
  top: "local/conv1"
}
layer {
  name: "local_norm1"
  type: "LRN"
  bottom: "local/conv1"
  top: "local/norm1"
  lrn_param {
    local_size: 5
    alpha: 0.0005
    beta: 0.75
    k: 2
  }
}
layer {
  name: "local_pool1"
  type: "Pooling"
  bottom: "local/norm1"
  top: "local/pool1"
  pooling_param {
    pool: MAX
    kernel_size: 3
    stride: 3
  }
}
layer {
  name: "local_conv2"
  type: "Convolution"
  bottom: "local/pool1"
  top: "local/conv2"
  param {
    lr_mult: 1
    decay_mult: 1
  }
  param {
    lr_mult: 2
    decay_mult: 0
  }
  convolution_param {
    num_output: 256
    kernel_size: 5
    weight_filler {
      type: "xavier"
    }
    bias_filler {
      type: "constant"
      value: 0.2
    }
  }
}
layer {
  name: "local_relu2"
  type: "ReLU"
  bottom: "local/conv2"
  top: "local/conv2"
}
layer {
  name: "local_pool2"
  type: "Pooling"
  bottom: "local/conv2"
  top: "local/pool2"
  pooling_param {
    pool: MAX
    kernel_size: 2
    stride: 2
  }
}
layer {
  name: "local_conv3"
  type: "Convolution"
  bottom: "local/pool2"
  top: "local/conv3"
  param {
    lr_mult: 1
    decay_mult: 1
  }
  param {
    lr_mult: 2
    decay_mult: 0
  }
  convolution_param {
    num_output: 512
    pad: 1
    kernel_size: 3
    weight_filler {
      type: "xavier"
    }
    bias_filler {
      type: "constant"
      value: 0.2
    }
  }
}
layer {
  name: "local_relu3"
  type: "ReLU"
  bottom: "local/conv3"
  top: "local/conv3"
}
layer {
  name: "local_conv4"
  type: "Convolution"
  bottom: "local/conv3"
  top: "local/conv4"
  param {
    lr_mult: 1
    decay_mult: 1
  }
  param {
    lr_mult: 2
    decay_mult: 0
  }
  convolution_param {
    num_output: 512
    pad: 1
    kernel_size: 3
    weight_filler {
      type: "xavier"
    }
    bias_filler {
      type: "constant"
      value: 0.2
    }
  }
}
layer {
  name: "local_relu4"
  type: "ReLU"
  bottom: "local/conv4"
  top: "local/conv4"
}
layer {
  name: "local_conv5"
  type: "Convolution"
  bottom: "local/conv4"
  top: "local/conv5"
  param {
    lr_mult: 1
    decay_mult: 1
  }
  param {
    lr_mult: 2
    decay_mult: 0
  }
  convolution_param {
    num_output: 512
    pad: 1
    kernel_size: 3
    weight_filler {
      type: "xavier"
    }
    bias_filler {
      type: "constant"
      value: 0.2
    }
  }
}
layer {
  name: "local_relu5"
  type: "ReLU"
  bottom: "local/conv5"
  top: "local/conv5"
}
layer {
  name: "local_pool3"
  type: "Pooling"
  bottom: "local/conv5"
  top: "local/pool3"
  pooling_param {
    pool: MAX
    kernel_size: 3
    stride: 3
  }
}
layer {
  name: "local_fc6"
  type: "InnerProduct"
  bottom: "local/pool3"
  top: "local/fc6"
  param {
    lr_mult: 1
    decay_mult: 1
  }
  param {
    lr_mult: 2
    decay_mult: 0
  }
  inner_product_param {
    num_output: 4096
    weight_filler {
      type: "xavier"
    }
    bias_filler {
      type: "constant"
      value: 0
    }
  }
}
layer {
  name: "local_relu6"
  type: "ReLU"
  bottom: "local/fc6"
  top: "local/fc6"
}
layer {
  name: "local_drop6"
  type: "Dropout"
  bottom: "local/fc6"
  top: "local/fc6"
  dropout_param {
    dropout_ratio: 0.5
  }
}
layer {
  name: "local_fc7"
  type: "InnerProduct"
  bottom: "local/fc6"
  top: "local/fc7"
  param {
    lr_mult: 1
    decay_mult: 1
  }
  param {
    lr_mult: 2
    decay_mult: 0
  }
  inner_product_param {
    num_output: 4096
    weight_filler {
      type: "xavier"
    }
    bias_filler {
      type: "constant"
      value: 0
    }
  }
}
layer {
  name: "local_relu7"
  type: "ReLU"
  bottom: "local/fc7"
  top: "local/fc7"
}
layer {
  name: "local_drop7"
  type: "Dropout"
  bottom: "local/fc7"
  top: "local/fc7"
  dropout_param {
    dropout_ratio: 0.5
  }
}
layer {
  name: "local_68point"
  type: "InnerProduct"
  bottom: "local/fc7"
  top: "local/68point"
  param {
    lr_mult: 1
    decay_mult: 1
  }
  param {
    lr_mult: 2
    decay_mult: 0
  }
  inner_product_param {
    num_output: 136
    weight_filler {
      type: "xavier"
    }
    bias_filler {
      type: "constant"
      value: 0
    }
  }
}
layer {
  name: "local_loss"
  type: "EuclideanLoss"
  bottom: "local/68point"
  bottom: "local/label"
  top: "local/loss"
}
I0803 17:00:47.596048  5831 layer_factory.hpp:77] Creating layer facial_point
I0803 17:00:47.596096  5831 net.cpp:91] Creating Layer facial_point
I0803 17:00:47.596108  5831 net.cpp:399] facial_point -> data
I0803 17:00:47.596135  5831 net.cpp:399] facial_point -> label
I0803 17:00:47.596153  5831 new_facial_point_data_layer.cpp:187] Opening file train_aug_list.txt
I0803 17:00:47.601678  5831 new_facial_point_data_layer.cpp:197] Shuffling data
I0803 17:00:47.603001  5831 new_facial_point_data_layer.cpp:203] A total of 12592 images.
I0803 17:00:47.648943  5831 new_facial_point_data_layer.cpp:263] output data size: 32,3,224,224
I0803 17:00:47.690528  5831 net.cpp:141] Setting up facial_point
I0803 17:00:47.690587  5831 net.cpp:148] Top shape: 32 3 224 224 (4816896)
I0803 17:00:47.690605  5831 net.cpp:148] Top shape: 32 136 (4352)
I0803 17:00:47.690614  5831 net.cpp:156] Memory required for data: 19284992
I0803 17:00:47.690628  5831 layer_factory.hpp:77] Creating layer data_facial_point_0_split
I0803 17:00:47.690654  5831 net.cpp:91] Creating Layer data_facial_point_0_split
I0803 17:00:47.690666  5831 net.cpp:425] data_facial_point_0_split <- data
I0803 17:00:47.690685  5831 net.cpp:399] data_facial_point_0_split -> data_facial_point_0_split_0
I0803 17:00:47.690702  5831 net.cpp:399] data_facial_point_0_split -> data_facial_point_0_split_1
I0803 17:00:47.690791  5831 net.cpp:141] Setting up data_facial_point_0_split
I0803 17:00:47.690830  5831 net.cpp:148] Top shape: 32 3 224 224 (4816896)
I0803 17:00:47.690840  5831 net.cpp:148] Top shape: 32 3 224 224 (4816896)
I0803 17:00:47.690848  5831 net.cpp:156] Memory required for data: 57820160
I0803 17:00:47.690857  5831 layer_factory.hpp:77] Creating layer label_facial_point_1_split
I0803 17:00:47.690870  5831 net.cpp:91] Creating Layer label_facial_point_1_split
I0803 17:00:47.690878  5831 net.cpp:425] label_facial_point_1_split <- label
I0803 17:00:47.690889  5831 net.cpp:399] label_facial_point_1_split -> label_facial_point_1_split_0
I0803 17:00:47.690901  5831 net.cpp:399] label_facial_point_1_split -> label_facial_point_1_split_1
I0803 17:00:47.690944  5831 net.cpp:141] Setting up label_facial_point_1_split
I0803 17:00:47.690966  5831 net.cpp:148] Top shape: 32 136 (4352)
I0803 17:00:47.690975  5831 net.cpp:148] Top shape: 32 136 (4352)
I0803 17:00:47.690984  5831 net.cpp:156] Memory required for data: 57854976
I0803 17:00:47.690994  5831 layer_factory.hpp:77] Creating layer conv1
I0803 17:00:47.691015  5831 net.cpp:91] Creating Layer conv1
I0803 17:00:47.691023  5831 net.cpp:425] conv1 <- data_facial_point_0_split_0
I0803 17:00:47.691035  5831 net.cpp:399] conv1 -> conv1
I0803 17:00:47.691409  5831 net.cpp:141] Setting up conv1
I0803 17:00:47.691426  5831 net.cpp:148] Top shape: 32 96 109 109 (36498432)
I0803 17:00:47.691436  5831 net.cpp:156] Memory required for data: 203848704
I0803 17:00:47.691454  5831 layer_factory.hpp:77] Creating layer relu1
I0803 17:00:47.691468  5831 net.cpp:91] Creating Layer relu1
I0803 17:00:47.691478  5831 net.cpp:425] relu1 <- conv1
I0803 17:00:47.691488  5831 net.cpp:386] relu1 -> conv1 (in-place)
I0803 17:00:47.691501  5831 net.cpp:141] Setting up relu1
I0803 17:00:47.691511  5831 net.cpp:148] Top shape: 32 96 109 109 (36498432)
I0803 17:00:47.691519  5831 net.cpp:156] Memory required for data: 349842432
I0803 17:00:47.691527  5831 layer_factory.hpp:77] Creating layer norm1
I0803 17:00:47.691540  5831 net.cpp:91] Creating Layer norm1
I0803 17:00:47.691547  5831 net.cpp:425] norm1 <- conv1
I0803 17:00:47.691556  5831 net.cpp:399] norm1 -> norm1
I0803 17:00:47.691601  5831 net.cpp:141] Setting up norm1
I0803 17:00:47.691622  5831 net.cpp:148] Top shape: 32 96 109 109 (36498432)
I0803 17:00:47.691628  5831 net.cpp:156] Memory required for data: 495836160
I0803 17:00:47.691637  5831 layer_factory.hpp:77] Creating layer pool1
I0803 17:00:47.691648  5831 net.cpp:91] Creating Layer pool1
I0803 17:00:47.691658  5831 net.cpp:425] pool1 <- norm1
I0803 17:00:47.691668  5831 net.cpp:399] pool1 -> pool1
I0803 17:00:47.691721  5831 net.cpp:141] Setting up pool1
I0803 17:00:47.691735  5831 net.cpp:148] Top shape: 32 96 37 37 (4205568)
I0803 17:00:47.691743  5831 net.cpp:156] Memory required for data: 512658432
I0803 17:00:47.691751  5831 layer_factory.hpp:77] Creating layer conv2
I0803 17:00:47.691764  5831 net.cpp:91] Creating Layer conv2
I0803 17:00:47.691773  5831 net.cpp:425] conv2 <- pool1
I0803 17:00:47.691783  5831 net.cpp:399] conv2 -> conv2
I0803 17:00:47.698521  5831 net.cpp:141] Setting up conv2
I0803 17:00:47.698546  5831 net.cpp:148] Top shape: 32 256 33 33 (8921088)
I0803 17:00:47.698555  5831 net.cpp:156] Memory required for data: 548342784
I0803 17:00:47.698570  5831 layer_factory.hpp:77] Creating layer relu2
I0803 17:00:47.698582  5831 net.cpp:91] Creating Layer relu2
I0803 17:00:47.698590  5831 net.cpp:425] relu2 <- conv2
I0803 17:00:47.698602  5831 net.cpp:386] relu2 -> conv2 (in-place)
I0803 17:00:47.698614  5831 net.cpp:141] Setting up relu2
I0803 17:00:47.698623  5831 net.cpp:148] Top shape: 32 256 33 33 (8921088)
I0803 17:00:47.698631  5831 net.cpp:156] Memory required for data: 584027136
I0803 17:00:47.698637  5831 layer_factory.hpp:77] Creating layer pool2
I0803 17:00:47.698647  5831 net.cpp:91] Creating Layer pool2
I0803 17:00:47.698654  5831 net.cpp:425] pool2 <- conv2
I0803 17:00:47.698664  5831 net.cpp:399] pool2 -> pool2
I0803 17:00:47.698706  5831 net.cpp:141] Setting up pool2
I0803 17:00:47.698734  5831 net.cpp:148] Top shape: 32 256 17 17 (2367488)
I0803 17:00:47.698741  5831 net.cpp:156] Memory required for data: 593497088
I0803 17:00:47.698750  5831 layer_factory.hpp:77] Creating layer conv3
I0803 17:00:47.698763  5831 net.cpp:91] Creating Layer conv3
I0803 17:00:47.698771  5831 net.cpp:425] conv3 <- pool2
I0803 17:00:47.698782  5831 net.cpp:399] conv3 -> conv3
I0803 17:00:47.715545  5831 net.cpp:141] Setting up conv3
I0803 17:00:47.715572  5831 net.cpp:148] Top shape: 32 512 17 17 (4734976)
I0803 17:00:47.715582  5831 net.cpp:156] Memory required for data: 612436992
I0803 17:00:47.715597  5831 layer_factory.hpp:77] Creating layer relu3
I0803 17:00:47.715610  5831 net.cpp:91] Creating Layer relu3
I0803 17:00:47.715620  5831 net.cpp:425] relu3 <- conv3
I0803 17:00:47.715631  5831 net.cpp:386] relu3 -> conv3 (in-place)
I0803 17:00:47.715642  5831 net.cpp:141] Setting up relu3
I0803 17:00:47.715653  5831 net.cpp:148] Top shape: 32 512 17 17 (4734976)
I0803 17:00:47.715661  5831 net.cpp:156] Memory required for data: 631376896
I0803 17:00:47.715667  5831 layer_factory.hpp:77] Creating layer conv4
I0803 17:00:47.715682  5831 net.cpp:91] Creating Layer conv4
I0803 17:00:47.715689  5831 net.cpp:425] conv4 <- conv3
I0803 17:00:47.715703  5831 net.cpp:399] conv4 -> conv4
I0803 17:00:47.738157  5831 net.cpp:141] Setting up conv4
I0803 17:00:47.738194  5831 net.cpp:148] Top shape: 32 512 17 17 (4734976)
I0803 17:00:47.738206  5831 net.cpp:156] Memory required for data: 650316800
I0803 17:00:47.738220  5831 layer_factory.hpp:77] Creating layer relu4
I0803 17:00:47.738234  5831 net.cpp:91] Creating Layer relu4
I0803 17:00:47.738243  5831 net.cpp:425] relu4 <- conv4
I0803 17:00:47.738255  5831 net.cpp:386] relu4 -> conv4 (in-place)
I0803 17:00:47.738268  5831 net.cpp:141] Setting up relu4
I0803 17:00:47.738277  5831 net.cpp:148] Top shape: 32 512 17 17 (4734976)
I0803 17:00:47.738286  5831 net.cpp:156] Memory required for data: 669256704
I0803 17:00:47.738294  5831 layer_factory.hpp:77] Creating layer conv5
I0803 17:00:47.738312  5831 net.cpp:91] Creating Layer conv5
I0803 17:00:47.738320  5831 net.cpp:425] conv5 <- conv4
I0803 17:00:47.738332  5831 net.cpp:399] conv5 -> conv5
I0803 17:00:47.760799  5831 net.cpp:141] Setting up conv5
I0803 17:00:47.760836  5831 net.cpp:148] Top shape: 32 512 17 17 (4734976)
I0803 17:00:47.760845  5831 net.cpp:156] Memory required for data: 688196608
I0803 17:00:47.760867  5831 layer_factory.hpp:77] Creating layer relu5
I0803 17:00:47.760885  5831 net.cpp:91] Creating Layer relu5
I0803 17:00:47.760895  5831 net.cpp:425] relu5 <- conv5
I0803 17:00:47.760905  5831 net.cpp:386] relu5 -> conv5 (in-place)
I0803 17:00:47.760917  5831 net.cpp:141] Setting up relu5
I0803 17:00:47.760926  5831 net.cpp:148] Top shape: 32 512 17 17 (4734976)
I0803 17:00:47.760934  5831 net.cpp:156] Memory required for data: 707136512
I0803 17:00:47.760942  5831 layer_factory.hpp:77] Creating layer pool3
I0803 17:00:47.760956  5831 net.cpp:91] Creating Layer pool3
I0803 17:00:47.760963  5831 net.cpp:425] pool3 <- conv5
I0803 17:00:47.760973  5831 net.cpp:399] pool3 -> pool3
I0803 17:00:47.761013  5831 net.cpp:141] Setting up pool3
I0803 17:00:47.761025  5831 net.cpp:148] Top shape: 32 512 6 6 (589824)
I0803 17:00:47.761032  5831 net.cpp:156] Memory required for data: 709495808
I0803 17:00:47.761039  5831 layer_factory.hpp:77] Creating layer fc6
I0803 17:00:47.761052  5831 net.cpp:91] Creating Layer fc6
I0803 17:00:47.761059  5831 net.cpp:425] fc6 <- pool3
I0803 17:00:47.761070  5831 net.cpp:399] fc6 -> fc6
I0803 17:00:48.533790  5831 net.cpp:141] Setting up fc6
I0803 17:00:48.533892  5831 net.cpp:148] Top shape: 32 4096 (131072)
I0803 17:00:48.533905  5831 net.cpp:156] Memory required for data: 710020096
I0803 17:00:48.533980  5831 layer_factory.hpp:77] Creating layer relu6
I0803 17:00:48.534024  5831 net.cpp:91] Creating Layer relu6
I0803 17:00:48.534060  5831 net.cpp:425] relu6 <- fc6
I0803 17:00:48.534080  5831 net.cpp:386] relu6 -> fc6 (in-place)
I0803 17:00:48.534097  5831 net.cpp:141] Setting up relu6
I0803 17:00:48.534148  5831 net.cpp:148] Top shape: 32 4096 (131072)
I0803 17:00:48.534158  5831 net.cpp:156] Memory required for data: 710544384
I0803 17:00:48.534167  5831 layer_factory.hpp:77] Creating layer drop6
I0803 17:00:48.534206  5831 net.cpp:91] Creating Layer drop6
I0803 17:00:48.534217  5831 net.cpp:425] drop6 <- fc6
I0803 17:00:48.534227  5831 net.cpp:386] drop6 -> fc6 (in-place)
I0803 17:00:48.534359  5831 net.cpp:141] Setting up drop6
I0803 17:00:48.534375  5831 net.cpp:148] Top shape: 32 4096 (131072)
I0803 17:00:48.534384  5831 net.cpp:156] Memory required for data: 711068672
I0803 17:00:48.534392  5831 layer_factory.hpp:77] Creating layer fc7
I0803 17:00:48.534415  5831 net.cpp:91] Creating Layer fc7
I0803 17:00:48.534432  5831 net.cpp:425] fc7 <- fc6
I0803 17:00:48.534448  5831 net.cpp:399] fc7 -> fc7
I0803 17:00:48.697939  5831 net.cpp:141] Setting up fc7
I0803 17:00:48.697991  5831 net.cpp:148] Top shape: 32 4096 (131072)
I0803 17:00:48.698001  5831 net.cpp:156] Memory required for data: 711592960
I0803 17:00:48.698017  5831 layer_factory.hpp:77] Creating layer relu7
I0803 17:00:48.698035  5831 net.cpp:91] Creating Layer relu7
I0803 17:00:48.698045  5831 net.cpp:425] relu7 <- fc7
I0803 17:00:48.698062  5831 net.cpp:386] relu7 -> fc7 (in-place)
I0803 17:00:48.698078  5831 net.cpp:141] Setting up relu7
I0803 17:00:48.698088  5831 net.cpp:148] Top shape: 32 4096 (131072)
I0803 17:00:48.698096  5831 net.cpp:156] Memory required for data: 712117248
I0803 17:00:48.698103  5831 layer_factory.hpp:77] Creating layer drop7
I0803 17:00:48.698120  5831 net.cpp:91] Creating Layer drop7
I0803 17:00:48.698129  5831 net.cpp:425] drop7 <- fc7
I0803 17:00:48.698138  5831 net.cpp:386] drop7 -> fc7 (in-place)
I0803 17:00:48.698176  5831 net.cpp:141] Setting up drop7
I0803 17:00:48.698196  5831 net.cpp:148] Top shape: 32 4096 (131072)
I0803 17:00:48.698204  5831 net.cpp:156] Memory required for data: 712641536
I0803 17:00:48.698211  5831 layer_factory.hpp:77] Creating layer 68point
I0803 17:00:48.698235  5831 net.cpp:91] Creating Layer 68point
I0803 17:00:48.698242  5831 net.cpp:425] 68point <- fc7
I0803 17:00:48.698257  5831 net.cpp:399] 68point -> 68point
I0803 17:00:48.703651  5831 net.cpp:141] Setting up 68point
I0803 17:00:48.703686  5831 net.cpp:148] Top shape: 32 136 (4352)
I0803 17:00:48.703696  5831 net.cpp:156] Memory required for data: 712658944
I0803 17:00:48.703707  5831 layer_factory.hpp:77] Creating layer 68point_68point_0_split
I0803 17:00:48.703719  5831 net.cpp:91] Creating Layer 68point_68point_0_split
I0803 17:00:48.703728  5831 net.cpp:425] 68point_68point_0_split <- 68point
I0803 17:00:48.703737  5831 net.cpp:399] 68point_68point_0_split -> 68point_68point_0_split_0
I0803 17:00:48.703750  5831 net.cpp:399] 68point_68point_0_split -> 68point_68point_0_split_1
I0803 17:00:48.703805  5831 net.cpp:141] Setting up 68point_68point_0_split
I0803 17:00:48.703819  5831 net.cpp:148] Top shape: 32 136 (4352)
I0803 17:00:48.703827  5831 net.cpp:148] Top shape: 32 136 (4352)
I0803 17:00:48.703835  5831 net.cpp:156] Memory required for data: 712693760
I0803 17:00:48.703842  5831 layer_factory.hpp:77] Creating layer loss
I0803 17:00:48.703866  5831 net.cpp:91] Creating Layer loss
I0803 17:00:48.703874  5831 net.cpp:425] loss <- 68point_68point_0_split_0
I0803 17:00:48.703883  5831 net.cpp:425] loss <- label_facial_point_1_split_0
I0803 17:00:48.703901  5831 net.cpp:399] loss -> loss
I0803 17:00:48.703950  5831 net.cpp:141] Setting up loss
I0803 17:00:48.703961  5831 net.cpp:148] Top shape: (1)
I0803 17:00:48.703969  5831 net.cpp:151]     with loss weight 1
I0803 17:00:48.704053  5831 net.cpp:156] Memory required for data: 712693764
I0803 17:00:48.704062  5831 layer_factory.hpp:77] Creating layer loc_reg_affine
I0803 17:00:48.704089  5831 net.cpp:91] Creating Layer loc_reg_affine
I0803 17:00:48.704098  5831 net.cpp:425] loc_reg_affine <- 68point_68point_0_split_1
I0803 17:00:48.704109  5831 net.cpp:399] loc_reg_affine -> theta
I0803 17:00:48.704314  5831 net.cpp:141] Setting up loc_reg_affine
I0803 17:00:48.704331  5831 net.cpp:148] Top shape: 32 6 (192)
I0803 17:00:48.704365  5831 net.cpp:156] Memory required for data: 712694532
I0803 17:00:48.704396  5831 layer_factory.hpp:77] Creating layer theta_loc_reg_affine_0_split
I0803 17:00:48.704408  5831 net.cpp:91] Creating Layer theta_loc_reg_affine_0_split
I0803 17:00:48.704416  5831 net.cpp:425] theta_loc_reg_affine_0_split <- theta
I0803 17:00:48.704427  5831 net.cpp:399] theta_loc_reg_affine_0_split -> theta_loc_reg_affine_0_split_0
I0803 17:00:48.704438  5831 net.cpp:399] theta_loc_reg_affine_0_split -> theta_loc_reg_affine_0_split_1
I0803 17:00:48.704450  5831 net.cpp:399] theta_loc_reg_affine_0_split -> theta_loc_reg_affine_0_split_2
I0803 17:00:48.704506  5831 net.cpp:141] Setting up theta_loc_reg_affine_0_split
I0803 17:00:48.704519  5831 net.cpp:148] Top shape: 32 6 (192)
I0803 17:00:48.704527  5831 net.cpp:148] Top shape: 32 6 (192)
I0803 17:00:48.704535  5831 net.cpp:148] Top shape: 32 6 (192)
I0803 17:00:48.704541  5831 net.cpp:156] Memory required for data: 712696836
I0803 17:00:48.704550  5831 layer_factory.hpp:77] Creating layer theta_loss
I0803 17:00:48.704560  5831 net.cpp:91] Creating Layer theta_loss
I0803 17:00:48.704567  5831 net.cpp:425] theta_loss <- theta_loc_reg_affine_0_split_0
I0803 17:00:48.704581  5831 net.cpp:399] theta_loss -> theta_loss
I0803 17:00:48.704639  5831 net.cpp:141] Setting up theta_loss
I0803 17:00:48.704650  5831 net.cpp:148] Top shape: (1)
I0803 17:00:48.704658  5831 net.cpp:151]     with loss weight 1
I0803 17:00:48.704665  5831 net.cpp:156] Memory required for data: 712696840
I0803 17:00:48.704673  5831 layer_factory.hpp:77] Creating layer st_pts
I0803 17:00:48.704694  5831 net.cpp:91] Creating Layer st_pts
I0803 17:00:48.704702  5831 net.cpp:425] st_pts <- label_facial_point_1_split_1
I0803 17:00:48.704711  5831 net.cpp:425] st_pts <- theta_loc_reg_affine_0_split_1
I0803 17:00:48.704721  5831 net.cpp:399] st_pts -> local/label
I0803 17:00:48.704751  5831 net.cpp:141] Setting up st_pts
I0803 17:00:48.704762  5831 net.cpp:148] Top shape: 32 136 1 1 (4352)
I0803 17:00:48.704769  5831 net.cpp:156] Memory required for data: 712714248
I0803 17:00:48.704777  5831 layer_factory.hpp:77] Creating layer st_layer
I0803 17:00:48.704798  5831 net.cpp:91] Creating Layer st_layer
I0803 17:00:48.704807  5831 net.cpp:425] st_layer <- data_facial_point_0_split_1
I0803 17:00:48.704815  5831 net.cpp:425] st_layer <- theta_loc_reg_affine_0_split_2
I0803 17:00:48.704824  5831 net.cpp:399] st_layer -> local/data
I0803 17:00:48.706955  5831 net.cpp:141] Setting up st_layer
I0803 17:00:48.706972  5831 net.cpp:148] Top shape: 32 3 224 224 (4816896)
I0803 17:00:48.706979  5831 net.cpp:156] Memory required for data: 731981832
I0803 17:00:48.706993  5831 layer_factory.hpp:77] Creating layer local_conv1
I0803 17:00:48.707015  5831 net.cpp:91] Creating Layer local_conv1
I0803 17:00:48.707026  5831 net.cpp:425] local_conv1 <- local/data
I0803 17:00:48.707036  5831 net.cpp:399] local_conv1 -> local/conv1
I0803 17:00:48.707442  5831 net.cpp:141] Setting up local_conv1
I0803 17:00:48.707458  5831 net.cpp:148] Top shape: 32 96 109 109 (36498432)
I0803 17:00:48.707465  5831 net.cpp:156] Memory required for data: 877975560
I0803 17:00:48.707476  5831 layer_factory.hpp:77] Creating layer local_relu1
I0803 17:00:48.707507  5831 net.cpp:91] Creating Layer local_relu1
I0803 17:00:48.707517  5831 net.cpp:425] local_relu1 <- local/conv1
I0803 17:00:48.707526  5831 net.cpp:386] local_relu1 -> local/conv1 (in-place)
I0803 17:00:48.707537  5831 net.cpp:141] Setting up local_relu1
I0803 17:00:48.707546  5831 net.cpp:148] Top shape: 32 96 109 109 (36498432)
I0803 17:00:48.707553  5831 net.cpp:156] Memory required for data: 1023969288
I0803 17:00:48.707561  5831 layer_factory.hpp:77] Creating layer local_norm1
I0803 17:00:48.707581  5831 net.cpp:91] Creating Layer local_norm1
I0803 17:00:48.707589  5831 net.cpp:425] local_norm1 <- local/conv1
I0803 17:00:48.707598  5831 net.cpp:399] local_norm1 -> local/norm1
I0803 17:00:48.707649  5831 net.cpp:141] Setting up local_norm1
I0803 17:00:48.707677  5831 net.cpp:148] Top shape: 32 96 109 109 (36498432)
I0803 17:00:48.707685  5831 net.cpp:156] Memory required for data: 1169963016
I0803 17:00:48.707693  5831 layer_factory.hpp:77] Creating layer local_pool1
I0803 17:00:48.707710  5831 net.cpp:91] Creating Layer local_pool1
I0803 17:00:48.707718  5831 net.cpp:425] local_pool1 <- local/norm1
I0803 17:00:48.707734  5831 net.cpp:399] local_pool1 -> local/pool1
I0803 17:00:48.707780  5831 net.cpp:141] Setting up local_pool1
I0803 17:00:48.707792  5831 net.cpp:148] Top shape: 32 96 37 37 (4205568)
I0803 17:00:48.707805  5831 net.cpp:156] Memory required for data: 1186785288
I0803 17:00:48.707813  5831 layer_factory.hpp:77] Creating layer local_conv2
I0803 17:00:48.707824  5831 net.cpp:91] Creating Layer local_conv2
I0803 17:00:48.707833  5831 net.cpp:425] local_conv2 <- local/pool1
I0803 17:00:48.707847  5831 net.cpp:399] local_conv2 -> local/conv2
I0803 17:00:48.714154  5831 net.cpp:141] Setting up local_conv2
I0803 17:00:48.714179  5831 net.cpp:148] Top shape: 32 256 33 33 (8921088)
I0803 17:00:48.714190  5831 net.cpp:156] Memory required for data: 1222469640
I0803 17:00:48.714201  5831 layer_factory.hpp:77] Creating layer local_relu2
I0803 17:00:48.714218  5831 net.cpp:91] Creating Layer local_relu2
I0803 17:00:48.714228  5831 net.cpp:425] local_relu2 <- local/conv2
I0803 17:00:48.714244  5831 net.cpp:386] local_relu2 -> local/conv2 (in-place)
I0803 17:00:48.714257  5831 net.cpp:141] Setting up local_relu2
I0803 17:00:48.714267  5831 net.cpp:148] Top shape: 32 256 33 33 (8921088)
I0803 17:00:48.714275  5831 net.cpp:156] Memory required for data: 1258153992
I0803 17:00:48.714283  5831 layer_factory.hpp:77] Creating layer local_pool2
I0803 17:00:48.714300  5831 net.cpp:91] Creating Layer local_pool2
I0803 17:00:48.714309  5831 net.cpp:425] local_pool2 <- local/conv2
I0803 17:00:48.714319  5831 net.cpp:399] local_pool2 -> local/pool2
I0803 17:00:48.714380  5831 net.cpp:141] Setting up local_pool2
I0803 17:00:48.714395  5831 net.cpp:148] Top shape: 32 256 17 17 (2367488)
I0803 17:00:48.714404  5831 net.cpp:156] Memory required for data: 1267623944
I0803 17:00:48.714417  5831 layer_factory.hpp:77] Creating layer local_conv3
I0803 17:00:48.714437  5831 net.cpp:91] Creating Layer local_conv3
I0803 17:00:48.714447  5831 net.cpp:425] local_conv3 <- local/pool2
I0803 17:00:48.714465  5831 net.cpp:399] local_conv3 -> local/conv3
I0803 17:00:48.726135  5831 net.cpp:141] Setting up local_conv3
I0803 17:00:48.726164  5831 net.cpp:148] Top shape: 32 512 17 17 (4734976)
I0803 17:00:48.726173  5831 net.cpp:156] Memory required for data: 1286563848
I0803 17:00:48.726193  5831 layer_factory.hpp:77] Creating layer local_relu3
I0803 17:00:48.726207  5831 net.cpp:91] Creating Layer local_relu3
I0803 17:00:48.726215  5831 net.cpp:425] local_relu3 <- local/conv3
I0803 17:00:48.726225  5831 net.cpp:386] local_relu3 -> local/conv3 (in-place)
I0803 17:00:48.726239  5831 net.cpp:141] Setting up local_relu3
I0803 17:00:48.726248  5831 net.cpp:148] Top shape: 32 512 17 17 (4734976)
I0803 17:00:48.726255  5831 net.cpp:156] Memory required for data: 1305503752
I0803 17:00:48.726263  5831 layer_factory.hpp:77] Creating layer local_conv4
I0803 17:00:48.726289  5831 net.cpp:91] Creating Layer local_conv4
I0803 17:00:48.726300  5831 net.cpp:425] local_conv4 <- local/conv3
I0803 17:00:48.726315  5831 net.cpp:399] local_conv4 -> local/conv4
I0803 17:00:48.749408  5831 net.cpp:141] Setting up local_conv4
I0803 17:00:48.749449  5831 net.cpp:148] Top shape: 32 512 17 17 (4734976)
I0803 17:00:48.749457  5831 net.cpp:156] Memory required for data: 1324443656
I0803 17:00:48.749471  5831 layer_factory.hpp:77] Creating layer local_relu4
I0803 17:00:48.749505  5831 net.cpp:91] Creating Layer local_relu4
I0803 17:00:48.749517  5831 net.cpp:425] local_relu4 <- local/conv4
I0803 17:00:48.749528  5831 net.cpp:386] local_relu4 -> local/conv4 (in-place)
I0803 17:00:48.749546  5831 net.cpp:141] Setting up local_relu4
I0803 17:00:48.749554  5831 net.cpp:148] Top shape: 32 512 17 17 (4734976)
I0803 17:00:48.749562  5831 net.cpp:156] Memory required for data: 1343383560
I0803 17:00:48.749593  5831 layer_factory.hpp:77] Creating layer local_conv5
I0803 17:00:48.749627  5831 net.cpp:91] Creating Layer local_conv5
I0803 17:00:48.749696  5831 net.cpp:425] local_conv5 <- local/conv4
I0803 17:00:48.749754  5831 net.cpp:399] local_conv5 -> local/conv5
I0803 17:00:48.787758  5831 net.cpp:141] Setting up local_conv5
I0803 17:00:48.787822  5831 net.cpp:148] Top shape: 32 512 17 17 (4734976)
I0803 17:00:48.787838  5831 net.cpp:156] Memory required for data: 1362323464
I0803 17:00:48.787859  5831 layer_factory.hpp:77] Creating layer local_relu5
I0803 17:00:48.787883  5831 net.cpp:91] Creating Layer local_relu5
I0803 17:00:48.787899  5831 net.cpp:425] local_relu5 <- local/conv5
I0803 17:00:48.787917  5831 net.cpp:386] local_relu5 -> local/conv5 (in-place)
I0803 17:00:48.787940  5831 net.cpp:141] Setting up local_relu5
I0803 17:00:48.787955  5831 net.cpp:148] Top shape: 32 512 17 17 (4734976)
I0803 17:00:48.787966  5831 net.cpp:156] Memory required for data: 1381263368
I0803 17:00:48.787977  5831 layer_factory.hpp:77] Creating layer local_pool3
I0803 17:00:48.787995  5831 net.cpp:91] Creating Layer local_pool3
I0803 17:00:48.788008  5831 net.cpp:425] local_pool3 <- local/conv5
I0803 17:00:48.788024  5831 net.cpp:399] local_pool3 -> local/pool3
I0803 17:00:48.788095  5831 net.cpp:141] Setting up local_pool3
I0803 17:00:48.788118  5831 net.cpp:148] Top shape: 32 512 6 6 (589824)
I0803 17:00:48.788130  5831 net.cpp:156] Memory required for data: 1383622664
I0803 17:00:48.788143  5831 layer_factory.hpp:77] Creating layer local_fc6
I0803 17:00:48.788166  5831 net.cpp:91] Creating Layer local_fc6
I0803 17:00:48.788178  5831 net.cpp:425] local_fc6 <- local/pool3
I0803 17:00:48.788197  5831 net.cpp:399] local_fc6 -> local/fc6
I0803 17:00:49.570732  5831 net.cpp:141] Setting up local_fc6
I0803 17:00:49.570785  5831 net.cpp:148] Top shape: 32 4096 (131072)
I0803 17:00:49.570796  5831 net.cpp:156] Memory required for data: 1384146952
I0803 17:00:49.570812  5831 layer_factory.hpp:77] Creating layer local_relu6
I0803 17:00:49.570842  5831 net.cpp:91] Creating Layer local_relu6
I0803 17:00:49.570853  5831 net.cpp:425] local_relu6 <- local/fc6
I0803 17:00:49.570865  5831 net.cpp:386] local_relu6 -> local/fc6 (in-place)
I0803 17:00:49.570883  5831 net.cpp:141] Setting up local_relu6
I0803 17:00:49.570891  5831 net.cpp:148] Top shape: 32 4096 (131072)
I0803 17:00:49.570901  5831 net.cpp:156] Memory required for data: 1384671240
I0803 17:00:49.570909  5831 layer_factory.hpp:77] Creating layer local_drop6
I0803 17:00:49.570930  5831 net.cpp:91] Creating Layer local_drop6
I0803 17:00:49.570940  5831 net.cpp:425] local_drop6 <- local/fc6
I0803 17:00:49.570950  5831 net.cpp:386] local_drop6 -> local/fc6 (in-place)
I0803 17:00:49.570983  5831 net.cpp:141] Setting up local_drop6
I0803 17:00:49.571008  5831 net.cpp:148] Top shape: 32 4096 (131072)
I0803 17:00:49.571015  5831 net.cpp:156] Memory required for data: 1385195528
I0803 17:00:49.571023  5831 layer_factory.hpp:77] Creating layer local_fc7
I0803 17:00:49.571045  5831 net.cpp:91] Creating Layer local_fc7
I0803 17:00:49.571056  5831 net.cpp:425] local_fc7 <- local/fc6
I0803 17:00:49.571075  5831 net.cpp:399] local_fc7 -> local/fc7
I0803 17:00:49.733683  5831 net.cpp:141] Setting up local_fc7
I0803 17:00:49.733727  5831 net.cpp:148] Top shape: 32 4096 (131072)
I0803 17:00:49.733737  5831 net.cpp:156] Memory required for data: 1385719816
I0803 17:00:49.733753  5831 layer_factory.hpp:77] Creating layer local_relu7
I0803 17:00:49.733777  5831 net.cpp:91] Creating Layer local_relu7
I0803 17:00:49.733796  5831 net.cpp:425] local_relu7 <- local/fc7
I0803 17:00:49.733808  5831 net.cpp:386] local_relu7 -> local/fc7 (in-place)
I0803 17:00:49.733826  5831 net.cpp:141] Setting up local_relu7
I0803 17:00:49.733836  5831 net.cpp:148] Top shape: 32 4096 (131072)
I0803 17:00:49.733844  5831 net.cpp:156] Memory required for data: 1386244104
I0803 17:00:49.733853  5831 layer_factory.hpp:77] Creating layer local_drop7
I0803 17:00:49.733892  5831 net.cpp:91] Creating Layer local_drop7
I0803 17:00:49.733901  5831 net.cpp:425] local_drop7 <- local/fc7
I0803 17:00:49.733911  5831 net.cpp:386] local_drop7 -> local/fc7 (in-place)
I0803 17:00:49.733955  5831 net.cpp:141] Setting up local_drop7
I0803 17:00:49.733975  5831 net.cpp:148] Top shape: 32 4096 (131072)
I0803 17:00:49.733984  5831 net.cpp:156] Memory required for data: 1386768392
I0803 17:00:49.733992  5831 layer_factory.hpp:77] Creating layer local_68point
I0803 17:00:49.734019  5831 net.cpp:91] Creating Layer local_68point
I0803 17:00:49.734028  5831 net.cpp:425] local_68point <- local/fc7
I0803 17:00:49.734040  5831 net.cpp:399] local_68point -> local/68point
I0803 17:00:49.739411  5831 net.cpp:141] Setting up local_68point
I0803 17:00:49.739435  5831 net.cpp:148] Top shape: 32 136 (4352)
I0803 17:00:49.739444  5831 net.cpp:156] Memory required for data: 1386785800
I0803 17:00:49.739473  5831 layer_factory.hpp:77] Creating layer local_loss
I0803 17:00:49.739487  5831 net.cpp:91] Creating Layer local_loss
I0803 17:00:49.739496  5831 net.cpp:425] local_loss <- local/68point
I0803 17:00:49.739506  5831 net.cpp:425] local_loss <- local/label
I0803 17:00:49.739516  5831 net.cpp:399] local_loss -> local/loss
…
